{"format": "layers-model", "generatedBy": "keras v2.8.0", "convertedBy": "TensorFlow.js Converter v4.22.0", "modelTopology": {"keras_version": "2.8.0", "backend": "tensorflow", "model_config": {"class_name": "Functional", "config": {"name": "model_32", "layers": [{"class_name": "InputLayer", "config": {"batch_input_shape": [null, null, null, 1], "dtype": "float32", "sparse": false, "ragged": false, "name": "input"}, "name": "input", "inbound_nodes": []}, {"class_name": "Conv2D", "config": {"name": "enc_layer0_conv1", "trainable": true, "dtype": "float32", "filters": 32, "kernel_size": [3, 3], "strides": [1, 1], "padding": "same", "data_format": "channels_last", "dilation_rate": [1, 1], "groups": 1, "activation": "linear", "use_bias": false, "kernel_initializer": {"class_name": "GlorotUniform", "config": {"seed": null}}, "bias_initializer": {"class_name": "Zeros", "config": {}}, "kernel_regularizer": null, "bias_regularizer": null, "activity_regularizer": null, "kernel_constraint": null, "bias_constraint": null}, "name": "enc_layer0_conv1", "inbound_nodes": [[["input", 0, 0, {}]]]}, {"class_name": "BatchNormalization", "config": {"name": "enc_layer0_conv1_BN", "trainable": true, "dtype": "float32", "axis": [3], "momentum": 0.99, "epsilon": 0.001, "center": true, "scale": true, "beta_initializer": {"class_name": "Zeros", "config": {}}, "gamma_initializer": {"class_name": "Ones", "config": {}}, "moving_mean_initializer": {"class_name": "Zeros", "config": {}}, "moving_variance_initializer": {"class_name": "Ones", "config": {}}, "beta_regularizer": null, "gamma_regularizer": null, "beta_constraint": null, "gamma_constraint": null}, "name": "enc_layer0_conv1_BN", "inbound_nodes": [[["enc_layer0_conv1", 0, 0, {}]]]}, {"class_name": "Activation", "config": {"name": "enc_layer0_conv1_activation", "trainable": true, "dtype": "float32", "activation": "swish"}, "name": "enc_layer0_conv1_activation", "inbound_nodes": [[["enc_layer0_conv1_BN", 0, 0, {}]]]}, {"class_name": "Conv2D", "config": {"name": "enc_layer0_conv2", "trainable": true, "dtype": "float32", "filters": 32, "kernel_size": [3, 3], "strides": [1, 1], "padding": "same", "data_format": "channels_last", "dilation_rate": [1, 1], "groups": 1, "activation": "linear", "use_bias": false, "kernel_initializer": {"class_name": "GlorotUniform", "config": {"seed": null}}, "bias_initializer": {"class_name": "Zeros", "config": {}}, "kernel_regularizer": null, "bias_regularizer": null, "activity_regularizer": null, "kernel_constraint": null, "bias_constraint": null}, "name": "enc_layer0_conv2", "inbound_nodes": [[["enc_layer0_conv1_activation", 0, 0, {}]]]}, {"class_name": "Conv2D", "config": {"name": "enc_layer0_identity", "trainable": true, "dtype": "float32", "filters": 32, "kernel_size": [1, 1], "strides": [1, 1], "padding": "same", "data_format": "channels_last", "dilation_rate": [1, 1], "groups": 1, "activation": "linear", "use_bias": false, "kernel_initializer": {"class_name": "GlorotUniform", "config": {"seed": null}}, "bias_initializer": {"class_name": "Zeros", "config": {}}, "kernel_regularizer": null, "bias_regularizer": null, "activity_regularizer": null, "kernel_constraint": null, "bias_constraint": null}, "name": "enc_layer0_identity", "inbound_nodes": [[["input", 0, 0, {}]]]}, {"class_name": "BatchNormalization", "config": {"name": "enc_layer0_conv2_BN", "trainable": true, "dtype": "float32", "axis": [3], "momentum": 0.99, "epsilon": 0.001, "center": true, "scale": true, "beta_initializer": {"class_name": "Zeros", "config": {}}, "gamma_initializer": {"class_name": "Ones", "config": {}}, "moving_mean_initializer": {"class_name": "Zeros", "config": {}}, "moving_variance_initializer": {"class_name": "Ones", "config": {}}, "beta_regularizer": null, "gamma_regularizer": null, "beta_constraint": null, "gamma_constraint": null}, "name": "enc_layer0_conv2_BN", "inbound_nodes": [[["enc_layer0_conv2", 0, 0, {}]]]}, {"class_name": "Add", "config": {"name": "enc_layer0_conv2_residual_connection", "trainable": true, "dtype": "float32"}, "name": "enc_layer0_conv2_residual_connection", "inbound_nodes": [[["enc_layer0_identity", 0, 0, {}], ["enc_layer0_conv2_BN", 0, 0, {}]]]}, {"class_name": "Activation", "config": {"name": "enc_layer0_conv2_activation", "trainable": true, "dtype": "float32", "activation": "swish"}, "name": "enc_layer0_conv2_activation", "inbound_nodes": [[["enc_layer0_conv2_residual_connection", 0, 0, {}]]]}, {"class_name": "MaxPooling2D", "config": {"name": "max_pooling2d_128", "trainable": true, "dtype": "float32", "pool_size": [2, 2], "padding": "valid", "strides": [2, 2], "data_format": "channels_last"}, "name": "max_pooling2d_128", "inbound_nodes": [[["enc_layer0_conv2_activation", 0, 0, {}]]]}, {"class_name": "Conv2D", "config": {"name": "enc_layer1_conv1", "trainable": true, "dtype": "float32", "filters": 64, "kernel_size": [3, 3], "strides": [1, 1], "padding": "same", "data_format": "channels_last", "dilation_rate": [1, 1], "groups": 1, "activation": "linear", "use_bias": false, "kernel_initializer": {"class_name": "GlorotUniform", "config": {"seed": null}}, "bias_initializer": {"class_name": "Zeros", "config": {}}, "kernel_regularizer": null, "bias_regularizer": null, "activity_regularizer": null, "kernel_constraint": null, "bias_constraint": null}, "name": "enc_layer1_conv1", "inbound_nodes": [[["max_pooling2d_128", 0, 0, {}]]]}, {"class_name": "BatchNormalization", "config": {"name": "enc_layer1_conv1_BN", "trainable": true, "dtype": "float32", "axis": [3], "momentum": 0.99, "epsilon": 0.001, "center": true, "scale": true, "beta_initializer": {"class_name": "Zeros", "config": {}}, "gamma_initializer": {"class_name": "Ones", "config": {}}, "moving_mean_initializer": {"class_name": "Zeros", "config": {}}, "moving_variance_initializer": {"class_name": "Ones", "config": {}}, "beta_regularizer": null, "gamma_regularizer": null, "beta_constraint": null, "gamma_constraint": null}, "name": "enc_layer1_conv1_BN", "inbound_nodes": [[["enc_layer1_conv1", 0, 0, {}]]]}, {"class_name": "Activation", "config": {"name": "enc_layer1_conv1_activation", "trainable": true, "dtype": "float32", "activation": "swish"}, "name": "enc_layer1_conv1_activation", "inbound_nodes": [[["enc_layer1_conv1_BN", 0, 0, {}]]]}, {"class_name": "Conv2D", "config": {"name": "enc_layer1_conv2", "trainable": true, "dtype": "float32", "filters": 64, "kernel_size": [3, 3], "strides": [1, 1], "padding": "same", "data_format": "channels_last", "dilation_rate": [1, 1], "groups": 1, "activation": "linear", "use_bias": false, "kernel_initializer": {"class_name": "GlorotUniform", "config": {"seed": null}}, "bias_initializer": {"class_name": "Zeros", "config": {}}, "kernel_regularizer": null, "bias_regularizer": null, "activity_regularizer": null, "kernel_constraint": null, "bias_constraint": null}, "name": "enc_layer1_conv2", "inbound_nodes": [[["enc_layer1_conv1_activation", 0, 0, {}]]]}, {"class_name": "Conv2D", "config": {"name": "enc_layer1_identity", "trainable": true, "dtype": "float32", "filters": 64, "kernel_size": [1, 1], "strides": [1, 1], "padding": "same", "data_format": "channels_last", "dilation_rate": [1, 1], "groups": 1, "activation": "linear", "use_bias": false, "kernel_initializer": {"class_name": "GlorotUniform", "config": {"seed": null}}, "bias_initializer": {"class_name": "Zeros", "config": {}}, "kernel_regularizer": null, "bias_regularizer": null, "activity_regularizer": null, "kernel_constraint": null, "bias_constraint": null}, "name": "enc_layer1_identity", "inbound_nodes": [[["max_pooling2d_128", 0, 0, {}]]]}, {"class_name": "BatchNormalization", "config": {"name": "enc_layer1_conv2_BN", "trainable": true, "dtype": "float32", "axis": [3], "momentum": 0.99, "epsilon": 0.001, "center": true, "scale": true, "beta_initializer": {"class_name": "Zeros", "config": {}}, "gamma_initializer": {"class_name": "Ones", "config": {}}, "moving_mean_initializer": {"class_name": "Zeros", "config": {}}, "moving_variance_initializer": {"class_name": "Ones", "config": {}}, "beta_regularizer": null, "gamma_regularizer": null, "beta_constraint": null, "gamma_constraint": null}, "name": "enc_layer1_conv2_BN", "inbound_nodes": [[["enc_layer1_conv2", 0, 0, {}]]]}, {"class_name": "Add", "config": {"name": "enc_layer1_conv2_residual_connection", "trainable": true, "dtype": "float32"}, "name": "enc_layer1_conv2_residual_connection", "inbound_nodes": [[["enc_layer1_identity", 0, 0, {}], ["enc_layer1_conv2_BN", 0, 0, {}]]]}, {"class_name": "Activation", "config": {"name": "enc_layer1_conv2_activation", "trainable": true, "dtype": "float32", "activation": "swish"}, "name": "enc_layer1_conv2_activation", "inbound_nodes": [[["enc_layer1_conv2_residual_connection", 0, 0, {}]]]}, {"class_name": "MaxPooling2D", "config": {"name": "max_pooling2d_129", "trainable": true, "dtype": "float32", "pool_size": [2, 2], "padding": "valid", "strides": [2, 2], "data_format": "channels_last"}, "name": "max_pooling2d_129", "inbound_nodes": [[["enc_layer1_conv2_activation", 0, 0, {}]]]}, {"class_name": "Conv2D", "config": {"name": "enc_layer2_conv1", "trainable": true, "dtype": "float32", "filters": 128, "kernel_size": [3, 3], "strides": [1, 1], "padding": "same", "data_format": "channels_last", "dilation_rate": [1, 1], "groups": 1, "activation": "linear", "use_bias": false, "kernel_initializer": {"class_name": "GlorotUniform", "config": {"seed": null}}, "bias_initializer": {"class_name": "Zeros", "config": {}}, "kernel_regularizer": null, "bias_regularizer": null, "activity_regularizer": null, "kernel_constraint": null, "bias_constraint": null}, "name": "enc_layer2_conv1", "inbound_nodes": [[["max_pooling2d_129", 0, 0, {}]]]}, {"class_name": "BatchNormalization", "config": {"name": "enc_layer2_conv1_BN", "trainable": true, "dtype": "float32", "axis": [3], "momentum": 0.99, "epsilon": 0.001, "center": true, "scale": true, "beta_initializer": {"class_name": "Zeros", "config": {}}, "gamma_initializer": {"class_name": "Ones", "config": {}}, "moving_mean_initializer": {"class_name": "Zeros", "config": {}}, "moving_variance_initializer": {"class_name": "Ones", "config": {}}, "beta_regularizer": null, "gamma_regularizer": null, "beta_constraint": null, "gamma_constraint": null}, "name": "enc_layer2_conv1_BN", "inbound_nodes": [[["enc_layer2_conv1", 0, 0, {}]]]}, {"class_name": "Activation", "config": {"name": "enc_layer2_conv1_activation", "trainable": true, "dtype": "float32", "activation": "swish"}, "name": "enc_layer2_conv1_activation", "inbound_nodes": [[["enc_layer2_conv1_BN", 0, 0, {}]]]}, {"class_name": "Conv2D", "config": {"name": "enc_layer2_conv2", "trainable": true, "dtype": "float32", "filters": 128, "kernel_size": [3, 3], "strides": [1, 1], "padding": "same", "data_format": "channels_last", "dilation_rate": [1, 1], "groups": 1, "activation": "linear", "use_bias": false, "kernel_initializer": {"class_name": "GlorotUniform", "config": {"seed": null}}, "bias_initializer": {"class_name": "Zeros", "config": {}}, "kernel_regularizer": null, "bias_regularizer": null, "activity_regularizer": null, "kernel_constraint": null, "bias_constraint": null}, "name": "enc_layer2_conv2", "inbound_nodes": [[["enc_layer2_conv1_activation", 0, 0, {}]]]}, {"class_name": "Conv2D", "config": {"name": "enc_layer2_identity", "trainable": true, "dtype": "float32", "filters": 128, "kernel_size": [1, 1], "strides": [1, 1], "padding": "same", "data_format": "channels_last", "dilation_rate": [1, 1], "groups": 1, "activation": "linear", "use_bias": false, "kernel_initializer": {"class_name": "GlorotUniform", "config": {"seed": null}}, "bias_initializer": {"class_name": "Zeros", "config": {}}, "kernel_regularizer": null, "bias_regularizer": null, "activity_regularizer": null, "kernel_constraint": null, "bias_constraint": null}, "name": "enc_layer2_identity", "inbound_nodes": [[["max_pooling2d_129", 0, 0, {}]]]}, {"class_name": "BatchNormalization", "config": {"name": "enc_layer2_conv2_BN", "trainable": true, "dtype": "float32", "axis": [3], "momentum": 0.99, "epsilon": 0.001, "center": true, "scale": true, "beta_initializer": {"class_name": "Zeros", "config": {}}, "gamma_initializer": {"class_name": "Ones", "config": {}}, "moving_mean_initializer": {"class_name": "Zeros", "config": {}}, "moving_variance_initializer": {"class_name": "Ones", "config": {}}, "beta_regularizer": null, "gamma_regularizer": null, "beta_constraint": null, "gamma_constraint": null}, "name": "enc_layer2_conv2_BN", "inbound_nodes": [[["enc_layer2_conv2", 0, 0, {}]]]}, {"class_name": "Add", "config": {"name": "enc_layer2_conv2_residual_connection", "trainable": true, "dtype": "float32"}, "name": "enc_layer2_conv2_residual_connection", "inbound_nodes": [[["enc_layer2_identity", 0, 0, {}], ["enc_layer2_conv2_BN", 0, 0, {}]]]}, {"class_name": "Activation", "config": {"name": "enc_layer2_conv2_activation", "trainable": true, "dtype": "float32", "activation": "swish"}, "name": "enc_layer2_conv2_activation", "inbound_nodes": [[["enc_layer2_conv2_residual_connection", 0, 0, {}]]]}, {"class_name": "MaxPooling2D", "config": {"name": "max_pooling2d_130", "trainable": true, "dtype": "float32", "pool_size": [2, 2], "padding": "valid", "strides": [2, 2], "data_format": "channels_last"}, "name": "max_pooling2d_130", "inbound_nodes": [[["enc_layer2_conv2_activation", 0, 0, {}]]]}, {"class_name": "Conv2D", "config": {"name": "enc_layer3_conv1", "trainable": true, "dtype": "float32", "filters": 256, "kernel_size": [3, 3], "strides": [1, 1], "padding": "same", "data_format": "channels_last", "dilation_rate": [1, 1], "groups": 1, "activation": "linear", "use_bias": false, "kernel_initializer": {"class_name": "GlorotUniform", "config": {"seed": null}}, "bias_initializer": {"class_name": "Zeros", "config": {}}, "kernel_regularizer": null, "bias_regularizer": null, "activity_regularizer": null, "kernel_constraint": null, "bias_constraint": null}, "name": "enc_layer3_conv1", "inbound_nodes": [[["max_pooling2d_130", 0, 0, {}]]]}, {"class_name": "BatchNormalization", "config": {"name": "enc_layer3_conv1_BN", "trainable": true, "dtype": "float32", "axis": [3], "momentum": 0.99, "epsilon": 0.001, "center": true, "scale": true, "beta_initializer": {"class_name": "Zeros", "config": {}}, "gamma_initializer": {"class_name": "Ones", "config": {}}, "moving_mean_initializer": {"class_name": "Zeros", "config": {}}, "moving_variance_initializer": {"class_name": "Ones", "config": {}}, "beta_regularizer": null, "gamma_regularizer": null, "beta_constraint": null, "gamma_constraint": null}, "name": "enc_layer3_conv1_BN", "inbound_nodes": [[["enc_layer3_conv1", 0, 0, {}]]]}, {"class_name": "Activation", "config": {"name": "enc_layer3_conv1_activation", "trainable": true, "dtype": "float32", "activation": "swish"}, "name": "enc_layer3_conv1_activation", "inbound_nodes": [[["enc_layer3_conv1_BN", 0, 0, {}]]]}, {"class_name": "Conv2D", "config": {"name": "enc_layer3_conv2", "trainable": true, "dtype": "float32", "filters": 256, "kernel_size": [3, 3], "strides": [1, 1], "padding": "same", "data_format": "channels_last", "dilation_rate": [1, 1], "groups": 1, "activation": "linear", "use_bias": false, "kernel_initializer": {"class_name": "GlorotUniform", "config": {"seed": null}}, "bias_initializer": {"class_name": "Zeros", "config": {}}, "kernel_regularizer": null, "bias_regularizer": null, "activity_regularizer": null, "kernel_constraint": null, "bias_constraint": null}, "name": "enc_layer3_conv2", "inbound_nodes": [[["enc_layer3_conv1_activation", 0, 0, {}]]]}, {"class_name": "Conv2D", "config": {"name": "enc_layer3_identity", "trainable": true, "dtype": "float32", "filters": 256, "kernel_size": [1, 1], "strides": [1, 1], "padding": "same", "data_format": "channels_last", "dilation_rate": [1, 1], "groups": 1, "activation": "linear", "use_bias": false, "kernel_initializer": {"class_name": "GlorotUniform", "config": {"seed": null}}, "bias_initializer": {"class_name": "Zeros", "config": {}}, "kernel_regularizer": null, "bias_regularizer": null, "activity_regularizer": null, "kernel_constraint": null, "bias_constraint": null}, "name": "enc_layer3_identity", "inbound_nodes": [[["max_pooling2d_130", 0, 0, {}]]]}, {"class_name": "BatchNormalization", "config": {"name": "enc_layer3_conv2_BN", "trainable": true, "dtype": "float32", "axis": [3], "momentum": 0.99, "epsilon": 0.001, "center": true, "scale": true, "beta_initializer": {"class_name": "Zeros", "config": {}}, "gamma_initializer": {"class_name": "Ones", "config": {}}, "moving_mean_initializer": {"class_name": "Zeros", "config": {}}, "moving_variance_initializer": {"class_name": "Ones", "config": {}}, "beta_regularizer": null, "gamma_regularizer": null, "beta_constraint": null, "gamma_constraint": null}, "name": "enc_layer3_conv2_BN", "inbound_nodes": [[["enc_layer3_conv2", 0, 0, {}]]]}, {"class_name": "Add", "config": {"name": "enc_layer3_conv2_residual_connection", "trainable": true, "dtype": "float32"}, "name": "enc_layer3_conv2_residual_connection", "inbound_nodes": [[["enc_layer3_identity", 0, 0, {}], ["enc_layer3_conv2_BN", 0, 0, {}]]]}, {"class_name": "Activation", "config": {"name": "enc_layer3_conv2_activation", "trainable": true, "dtype": "float32", "activation": "swish"}, "name": "enc_layer3_conv2_activation", "inbound_nodes": [[["enc_layer3_conv2_residual_connection", 0, 0, {}]]]}, {"class_name": "MaxPooling2D", "config": {"name": "max_pooling2d_131", "trainable": true, "dtype": "float32", "pool_size": [2, 2], "padding": "valid", "strides": [2, 2], "data_format": "channels_last"}, "name": "max_pooling2d_131", "inbound_nodes": [[["enc_layer3_conv2_activation", 0, 0, {}]]]}, {"class_name": "Conv2D", "config": {"name": "latent_conv", "trainable": true, "dtype": "float32", "filters": 512, "kernel_size": [3, 3], "strides": [1, 1], "padding": "same", "data_format": "channels_last", "dilation_rate": [1, 1], "groups": 1, "activation": "linear", "use_bias": false, "kernel_initializer": {"class_name": "GlorotUniform", "config": {"seed": null}}, "bias_initializer": {"class_name": "Zeros", "config": {}}, "kernel_regularizer": null, "bias_regularizer": null, "activity_regularizer": null, "kernel_constraint": null, "bias_constraint": null}, "name": "latent_conv", "inbound_nodes": [[["max_pooling2d_131", 0, 0, {}]]]}, {"class_name": "BatchNormalization", "config": {"name": "latent_conv_BN", "trainable": true, "dtype": "float32", "axis": [3], "momentum": 0.99, "epsilon": 0.001, "center": true, "scale": true, "beta_initializer": {"class_name": "Zeros", "config": {}}, "gamma_initializer": {"class_name": "Ones", "config": {}}, "moving_mean_initializer": {"class_name": "Zeros", "config": {}}, "moving_variance_initializer": {"class_name": "Ones", "config": {}}, "beta_regularizer": null, "gamma_regularizer": null, "beta_constraint": null, "gamma_constraint": null}, "name": "latent_conv_BN", "inbound_nodes": [[["latent_conv", 0, 0, {}]]]}, {"class_name": "Activation", "config": {"name": "latent_conv_activation", "trainable": true, "dtype": "float32", "activation": "swish"}, "name": "latent_conv_activation", "inbound_nodes": [[["latent_conv_BN", 0, 0, {}]]]}, {"class_name": "UpSampling2D", "config": {"name": "up_sampling2d_256", "trainable": true, "dtype": "float32", "size": [2, 2], "data_format": "channels_last", "interpolation": "nearest"}, "name": "up_sampling2d_256", "inbound_nodes": [[["latent_conv_activation", 0, 0, {}]]]}, {"class_name": "UpSampling2D", "config": {"name": "up_sampling2d_260", "trainable": true, "dtype": "float32", "size": [2, 2], "data_format": "channels_last", "interpolation": "nearest"}, "name": "up_sampling2d_260", "inbound_nodes": [[["latent_conv_activation", 0, 0, {}]]]}, {"class_name": "Concatenate", "config": {"name": "concatenate_256", "trainable": true, "dtype": "float32", "axis": -1}, "name": "concatenate_256", "inbound_nodes": [[["up_sampling2d_256", 0, 0, {}], ["enc_layer3_conv2_activation", 0, 0, {}]]]}, {"class_name": "Concatenate", "config": {"name": "concatenate_260", "trainable": true, "dtype": "float32", "axis": -1}, "name": "concatenate_260", "inbound_nodes": [[["up_sampling2d_260", 0, 0, {}], ["enc_layer3_conv2_activation", 0, 0, {}]]]}, {"class_name": "Conv2D", "config": {"name": "dendrites_dec_layer4_conv1", "trainable": true, "dtype": "float32", "filters": 256, "kernel_size": [3, 3], "strides": [1, 1], "padding": "same", "data_format": "channels_last", "dilation_rate": [1, 1], "groups": 1, "activation": "linear", "use_bias": false, "kernel_initializer": {"class_name": "GlorotUniform", "config": {"seed": null}}, "bias_initializer": {"class_name": "Zeros", "config": {}}, "kernel_regularizer": null, "bias_regularizer": null, "activity_regularizer": null, "kernel_constraint": null, "bias_constraint": null}, "name": "dendrites_dec_layer4_conv1", "inbound_nodes": [[["concatenate_256", 0, 0, {}]]]}, {"class_name": "Conv2D", "config": {"name": "spines_dec_layer4_conv1", "trainable": true, "dtype": "float32", "filters": 256, "kernel_size": [3, 3], "strides": [1, 1], "padding": "same", "data_format": "channels_last", "dilation_rate": [1, 1], "groups": 1, "activation": "linear", "use_bias": false, "kernel_initializer": {"class_name": "GlorotUniform", "config": {"seed": null}}, "bias_initializer": {"class_name": "Zeros", "config": {}}, "kernel_regularizer": null, "bias_regularizer": null, "activity_regularizer": null, "kernel_constraint": null, "bias_constraint": null}, "name": "spines_dec_layer4_conv1", "inbound_nodes": [[["concatenate_260", 0, 0, {}]]]}, {"class_name": "BatchNormalization", "config": {"name": "dendrites_dec_layer4_conv1_BN", "trainable": true, "dtype": "float32", "axis": [3], "momentum": 0.99, "epsilon": 0.001, "center": true, "scale": true, "beta_initializer": {"class_name": "Zeros", "config": {}}, "gamma_initializer": {"class_name": "Ones", "config": {}}, "moving_mean_initializer": {"class_name": "Zeros", "config": {}}, "moving_variance_initializer": {"class_name": "Ones", "config": {}}, "beta_regularizer": null, "gamma_regularizer": null, "beta_constraint": null, "gamma_constraint": null}, "name": "dendrites_dec_layer4_conv1_BN", "inbound_nodes": [[["dendrites_dec_layer4_conv1", 0, 0, {}]]]}, {"class_name": "BatchNormalization", "config": {"name": "spines_dec_layer4_conv1_BN", "trainable": true, "dtype": "float32", "axis": [3], "momentum": 0.99, "epsilon": 0.001, "center": true, "scale": true, "beta_initializer": {"class_name": "Zeros", "config": {}}, "gamma_initializer": {"class_name": "Ones", "config": {}}, "moving_mean_initializer": {"class_name": "Zeros", "config": {}}, "moving_variance_initializer": {"class_name": "Ones", "config": {}}, "beta_regularizer": null, "gamma_regularizer": null, "beta_constraint": null, "gamma_constraint": null}, "name": "spines_dec_layer4_conv1_BN", "inbound_nodes": [[["spines_dec_layer4_conv1", 0, 0, {}]]]}, {"class_name": "Activation", "config": {"name": "dendrites_dec_layer4_conv1_activation", "trainable": true, "dtype": "float32", "activation": "swish"}, "name": "dendrites_dec_layer4_conv1_activation", "inbound_nodes": [[["dendrites_dec_layer4_conv1_BN", 0, 0, {}]]]}, {"class_name": "Activation", "config": {"name": "spines_dec_layer4_conv1_activation", "trainable": true, "dtype": "float32", "activation": "swish"}, "name": "spines_dec_layer4_conv1_activation", "inbound_nodes": [[["spines_dec_layer4_conv1_BN", 0, 0, {}]]]}, {"class_name": "Conv2D", "config": {"name": "dendrites_dec_layer4_conv2", "trainable": true, "dtype": "float32", "filters": 256, "kernel_size": [3, 3], "strides": [1, 1], "padding": "same", "data_format": "channels_last", "dilation_rate": [1, 1], "groups": 1, "activation": "linear", "use_bias": false, "kernel_initializer": {"class_name": "GlorotUniform", "config": {"seed": null}}, "bias_initializer": {"class_name": "Zeros", "config": {}}, "kernel_regularizer": null, "bias_regularizer": null, "activity_regularizer": null, "kernel_constraint": null, "bias_constraint": null}, "name": "dendrites_dec_layer4_conv2", "inbound_nodes": [[["dendrites_dec_layer4_conv1_activation", 0, 0, {}]]]}, {"class_name": "Conv2D", "config": {"name": "spines_dec_layer4_conv2", "trainable": true, "dtype": "float32", "filters": 256, "kernel_size": [3, 3], "strides": [1, 1], "padding": "same", "data_format": "channels_last", "dilation_rate": [1, 1], "groups": 1, "activation": "linear", "use_bias": false, "kernel_initializer": {"class_name": "GlorotUniform", "config": {"seed": null}}, "bias_initializer": {"class_name": "Zeros", "config": {}}, "kernel_regularizer": null, "bias_regularizer": null, "activity_regularizer": null, "kernel_constraint": null, "bias_constraint": null}, "name": "spines_dec_layer4_conv2", "inbound_nodes": [[["spines_dec_layer4_conv1_activation", 0, 0, {}]]]}, {"class_name": "BatchNormalization", "config": {"name": "dendrites_dec_layer4_conv2_BN", "trainable": true, "dtype": "float32", "axis": [3], "momentum": 0.99, "epsilon": 0.001, "center": true, "scale": true, "beta_initializer": {"class_name": "Zeros", "config": {}}, "gamma_initializer": {"class_name": "Ones", "config": {}}, "moving_mean_initializer": {"class_name": "Zeros", "config": {}}, "moving_variance_initializer": {"class_name": "Ones", "config": {}}, "beta_regularizer": null, "gamma_regularizer": null, "beta_constraint": null, "gamma_constraint": null}, "name": "dendrites_dec_layer4_conv2_BN", "inbound_nodes": [[["dendrites_dec_layer4_conv2", 0, 0, {}]]]}, {"class_name": "BatchNormalization", "config": {"name": "spines_dec_layer4_conv2_BN", "trainable": true, "dtype": "float32", "axis": [3], "momentum": 0.99, "epsilon": 0.001, "center": true, "scale": true, "beta_initializer": {"class_name": "Zeros", "config": {}}, "gamma_initializer": {"class_name": "Ones", "config": {}}, "moving_mean_initializer": {"class_name": "Zeros", "config": {}}, "moving_variance_initializer": {"class_name": "Ones", "config": {}}, "beta_regularizer": null, "gamma_regularizer": null, "beta_constraint": null, "gamma_constraint": null}, "name": "spines_dec_layer4_conv2_BN", "inbound_nodes": [[["spines_dec_layer4_conv2", 0, 0, {}]]]}, {"class_name": "Activation", "config": {"name": "dendrites_dec_layer4_conv2_activation", "trainable": true, "dtype": "float32", "activation": "swish"}, "name": "dendrites_dec_layer4_conv2_activation", "inbound_nodes": [[["dendrites_dec_layer4_conv2_BN", 0, 0, {}]]]}, {"class_name": "Activation", "config": {"name": "spines_dec_layer4_conv2_activation", "trainable": true, "dtype": "float32", "activation": "swish"}, "name": "spines_dec_layer4_conv2_activation", "inbound_nodes": [[["spines_dec_layer4_conv2_BN", 0, 0, {}]]]}, {"class_name": "UpSampling2D", "config": {"name": "up_sampling2d_257", "trainable": true, "dtype": "float32", "size": [2, 2], "data_format": "channels_last", "interpolation": "nearest"}, "name": "up_sampling2d_257", "inbound_nodes": [[["dendrites_dec_layer4_conv2_activation", 0, 0, {}]]]}, {"class_name": "UpSampling2D", "config": {"name": "up_sampling2d_261", "trainable": true, "dtype": "float32", "size": [2, 2], "data_format": "channels_last", "interpolation": "nearest"}, "name": "up_sampling2d_261", "inbound_nodes": [[["spines_dec_layer4_conv2_activation", 0, 0, {}]]]}, {"class_name": "Concatenate", "config": {"name": "concatenate_257", "trainable": true, "dtype": "float32", "axis": -1}, "name": "concatenate_257", "inbound_nodes": [[["up_sampling2d_257", 0, 0, {}], ["enc_layer2_conv2_activation", 0, 0, {}]]]}, {"class_name": "Concatenate", "config": {"name": "concatenate_261", "trainable": true, "dtype": "float32", "axis": -1}, "name": "concatenate_261", "inbound_nodes": [[["up_sampling2d_261", 0, 0, {}], ["enc_layer2_conv2_activation", 0, 0, {}]]]}, {"class_name": "Conv2D", "config": {"name": "dendrites_dec_layer3_conv1", "trainable": true, "dtype": "float32", "filters": 128, "kernel_size": [3, 3], "strides": [1, 1], "padding": "same", "data_format": "channels_last", "dilation_rate": [1, 1], "groups": 1, "activation": "linear", "use_bias": false, "kernel_initializer": {"class_name": "GlorotUniform", "config": {"seed": null}}, "bias_initializer": {"class_name": "Zeros", "config": {}}, "kernel_regularizer": null, "bias_regularizer": null, "activity_regularizer": null, "kernel_constraint": null, "bias_constraint": null}, "name": "dendrites_dec_layer3_conv1", "inbound_nodes": [[["concatenate_257", 0, 0, {}]]]}, {"class_name": "Conv2D", "config": {"name": "spines_dec_layer3_conv1", "trainable": true, "dtype": "float32", "filters": 128, "kernel_size": [3, 3], "strides": [1, 1], "padding": "same", "data_format": "channels_last", "dilation_rate": [1, 1], "groups": 1, "activation": "linear", "use_bias": false, "kernel_initializer": {"class_name": "GlorotUniform", "config": {"seed": null}}, "bias_initializer": {"class_name": "Zeros", "config": {}}, "kernel_regularizer": null, "bias_regularizer": null, "activity_regularizer": null, "kernel_constraint": null, "bias_constraint": null}, "name": "spines_dec_layer3_conv1", "inbound_nodes": [[["concatenate_261", 0, 0, {}]]]}, {"class_name": "BatchNormalization", "config": {"name": "dendrites_dec_layer3_conv1_BN", "trainable": true, "dtype": "float32", "axis": [3], "momentum": 0.99, "epsilon": 0.001, "center": true, "scale": true, "beta_initializer": {"class_name": "Zeros", "config": {}}, "gamma_initializer": {"class_name": "Ones", "config": {}}, "moving_mean_initializer": {"class_name": "Zeros", "config": {}}, "moving_variance_initializer": {"class_name": "Ones", "config": {}}, "beta_regularizer": null, "gamma_regularizer": null, "beta_constraint": null, "gamma_constraint": null}, "name": "dendrites_dec_layer3_conv1_BN", "inbound_nodes": [[["dendrites_dec_layer3_conv1", 0, 0, {}]]]}, {"class_name": "BatchNormalization", "config": {"name": "spines_dec_layer3_conv1_BN", "trainable": true, "dtype": "float32", "axis": [3], "momentum": 0.99, "epsilon": 0.001, "center": true, "scale": true, "beta_initializer": {"class_name": "Zeros", "config": {}}, "gamma_initializer": {"class_name": "Ones", "config": {}}, "moving_mean_initializer": {"class_name": "Zeros", "config": {}}, "moving_variance_initializer": {"class_name": "Ones", "config": {}}, "beta_regularizer": null, "gamma_regularizer": null, "beta_constraint": null, "gamma_constraint": null}, "name": "spines_dec_layer3_conv1_BN", "inbound_nodes": [[["spines_dec_layer3_conv1", 0, 0, {}]]]}, {"class_name": "Activation", "config": {"name": "dendrites_dec_layer3_conv1_activation", "trainable": true, "dtype": "float32", "activation": "swish"}, "name": "dendrites_dec_layer3_conv1_activation", "inbound_nodes": [[["dendrites_dec_layer3_conv1_BN", 0, 0, {}]]]}, {"class_name": "Activation", "config": {"name": "spines_dec_layer3_conv1_activation", "trainable": true, "dtype": "float32", "activation": "swish"}, "name": "spines_dec_layer3_conv1_activation", "inbound_nodes": [[["spines_dec_layer3_conv1_BN", 0, 0, {}]]]}, {"class_name": "Conv2D", "config": {"name": "dendrites_dec_layer3_conv2", "trainable": true, "dtype": "float32", "filters": 128, "kernel_size": [3, 3], "strides": [1, 1], "padding": "same", "data_format": "channels_last", "dilation_rate": [1, 1], "groups": 1, "activation": "linear", "use_bias": false, "kernel_initializer": {"class_name": "GlorotUniform", "config": {"seed": null}}, "bias_initializer": {"class_name": "Zeros", "config": {}}, "kernel_regularizer": null, "bias_regularizer": null, "activity_regularizer": null, "kernel_constraint": null, "bias_constraint": null}, "name": "dendrites_dec_layer3_conv2", "inbound_nodes": [[["dendrites_dec_layer3_conv1_activation", 0, 0, {}]]]}, {"class_name": "Conv2D", "config": {"name": "spines_dec_layer3_conv2", "trainable": true, "dtype": "float32", "filters": 128, "kernel_size": [3, 3], "strides": [1, 1], "padding": "same", "data_format": "channels_last", "dilation_rate": [1, 1], "groups": 1, "activation": "linear", "use_bias": false, "kernel_initializer": {"class_name": "GlorotUniform", "config": {"seed": null}}, "bias_initializer": {"class_name": "Zeros", "config": {}}, "kernel_regularizer": null, "bias_regularizer": null, "activity_regularizer": null, "kernel_constraint": null, "bias_constraint": null}, "name": "spines_dec_layer3_conv2", "inbound_nodes": [[["spines_dec_layer3_conv1_activation", 0, 0, {}]]]}, {"class_name": "BatchNormalization", "config": {"name": "dendrites_dec_layer3_conv2_BN", "trainable": true, "dtype": "float32", "axis": [3], "momentum": 0.99, "epsilon": 0.001, "center": true, "scale": true, "beta_initializer": {"class_name": "Zeros", "config": {}}, "gamma_initializer": {"class_name": "Ones", "config": {}}, "moving_mean_initializer": {"class_name": "Zeros", "config": {}}, "moving_variance_initializer": {"class_name": "Ones", "config": {}}, "beta_regularizer": null, "gamma_regularizer": null, "beta_constraint": null, "gamma_constraint": null}, "name": "dendrites_dec_layer3_conv2_BN", "inbound_nodes": [[["dendrites_dec_layer3_conv2", 0, 0, {}]]]}, {"class_name": "BatchNormalization", "config": {"name": "spines_dec_layer3_conv2_BN", "trainable": true, "dtype": "float32", "axis": [3], "momentum": 0.99, "epsilon": 0.001, "center": true, "scale": true, "beta_initializer": {"class_name": "Zeros", "config": {}}, "gamma_initializer": {"class_name": "Ones", "config": {}}, "moving_mean_initializer": {"class_name": "Zeros", "config": {}}, "moving_variance_initializer": {"class_name": "Ones", "config": {}}, "beta_regularizer": null, "gamma_regularizer": null, "beta_constraint": null, "gamma_constraint": null}, "name": "spines_dec_layer3_conv2_BN", "inbound_nodes": [[["spines_dec_layer3_conv2", 0, 0, {}]]]}, {"class_name": "Activation", "config": {"name": "dendrites_dec_layer3_conv2_activation", "trainable": true, "dtype": "float32", "activation": "swish"}, "name": "dendrites_dec_layer3_conv2_activation", "inbound_nodes": [[["dendrites_dec_layer3_conv2_BN", 0, 0, {}]]]}, {"class_name": "Activation", "config": {"name": "spines_dec_layer3_conv2_activation", "trainable": true, "dtype": "float32", "activation": "swish"}, "name": "spines_dec_layer3_conv2_activation", "inbound_nodes": [[["spines_dec_layer3_conv2_BN", 0, 0, {}]]]}, {"class_name": "UpSampling2D", "config": {"name": "up_sampling2d_258", "trainable": true, "dtype": "float32", "size": [2, 2], "data_format": "channels_last", "interpolation": "nearest"}, "name": "up_sampling2d_258", "inbound_nodes": [[["dendrites_dec_layer3_conv2_activation", 0, 0, {}]]]}, {"class_name": "UpSampling2D", "config": {"name": "up_sampling2d_262", "trainable": true, "dtype": "float32", "size": [2, 2], "data_format": "channels_last", "interpolation": "nearest"}, "name": "up_sampling2d_262", "inbound_nodes": [[["spines_dec_layer3_conv2_activation", 0, 0, {}]]]}, {"class_name": "Concatenate", "config": {"name": "concatenate_258", "trainable": true, "dtype": "float32", "axis": -1}, "name": "concatenate_258", "inbound_nodes": [[["up_sampling2d_258", 0, 0, {}], ["enc_layer1_conv2_activation", 0, 0, {}]]]}, {"class_name": "Concatenate", "config": {"name": "concatenate_262", "trainable": true, "dtype": "float32", "axis": -1}, "name": "concatenate_262", "inbound_nodes": [[["up_sampling2d_262", 0, 0, {}], ["enc_layer1_conv2_activation", 0, 0, {}]]]}, {"class_name": "Conv2D", "config": {"name": "dendrites_dec_layer2_conv1", "trainable": true, "dtype": "float32", "filters": 64, "kernel_size": [3, 3], "strides": [1, 1], "padding": "same", "data_format": "channels_last", "dilation_rate": [1, 1], "groups": 1, "activation": "linear", "use_bias": false, "kernel_initializer": {"class_name": "GlorotUniform", "config": {"seed": null}}, "bias_initializer": {"class_name": "Zeros", "config": {}}, "kernel_regularizer": null, "bias_regularizer": null, "activity_regularizer": null, "kernel_constraint": null, "bias_constraint": null}, "name": "dendrites_dec_layer2_conv1", "inbound_nodes": [[["concatenate_258", 0, 0, {}]]]}, {"class_name": "Conv2D", "config": {"name": "spines_dec_layer2_conv1", "trainable": true, "dtype": "float32", "filters": 64, "kernel_size": [3, 3], "strides": [1, 1], "padding": "same", "data_format": "channels_last", "dilation_rate": [1, 1], "groups": 1, "activation": "linear", "use_bias": false, "kernel_initializer": {"class_name": "GlorotUniform", "config": {"seed": null}}, "bias_initializer": {"class_name": "Zeros", "config": {}}, "kernel_regularizer": null, "bias_regularizer": null, "activity_regularizer": null, "kernel_constraint": null, "bias_constraint": null}, "name": "spines_dec_layer2_conv1", "inbound_nodes": [[["concatenate_262", 0, 0, {}]]]}, {"class_name": "BatchNormalization", "config": {"name": "dendrites_dec_layer2_conv1_BN", "trainable": true, "dtype": "float32", "axis": [3], "momentum": 0.99, "epsilon": 0.001, "center": true, "scale": true, "beta_initializer": {"class_name": "Zeros", "config": {}}, "gamma_initializer": {"class_name": "Ones", "config": {}}, "moving_mean_initializer": {"class_name": "Zeros", "config": {}}, "moving_variance_initializer": {"class_name": "Ones", "config": {}}, "beta_regularizer": null, "gamma_regularizer": null, "beta_constraint": null, "gamma_constraint": null}, "name": "dendrites_dec_layer2_conv1_BN", "inbound_nodes": [[["dendrites_dec_layer2_conv1", 0, 0, {}]]]}, {"class_name": "BatchNormalization", "config": {"name": "spines_dec_layer2_conv1_BN", "trainable": true, "dtype": "float32", "axis": [3], "momentum": 0.99, "epsilon": 0.001, "center": true, "scale": true, "beta_initializer": {"class_name": "Zeros", "config": {}}, "gamma_initializer": {"class_name": "Ones", "config": {}}, "moving_mean_initializer": {"class_name": "Zeros", "config": {}}, "moving_variance_initializer": {"class_name": "Ones", "config": {}}, "beta_regularizer": null, "gamma_regularizer": null, "beta_constraint": null, "gamma_constraint": null}, "name": "spines_dec_layer2_conv1_BN", "inbound_nodes": [[["spines_dec_layer2_conv1", 0, 0, {}]]]}, {"class_name": "Activation", "config": {"name": "dendrites_dec_layer2_conv1_activation", "trainable": true, "dtype": "float32", "activation": "swish"}, "name": "dendrites_dec_layer2_conv1_activation", "inbound_nodes": [[["dendrites_dec_layer2_conv1_BN", 0, 0, {}]]]}, {"class_name": "Activation", "config": {"name": "spines_dec_layer2_conv1_activation", "trainable": true, "dtype": "float32", "activation": "swish"}, "name": "spines_dec_layer2_conv1_activation", "inbound_nodes": [[["spines_dec_layer2_conv1_BN", 0, 0, {}]]]}, {"class_name": "Conv2D", "config": {"name": "dendrites_dec_layer2_conv2", "trainable": true, "dtype": "float32", "filters": 64, "kernel_size": [3, 3], "strides": [1, 1], "padding": "same", "data_format": "channels_last", "dilation_rate": [1, 1], "groups": 1, "activation": "linear", "use_bias": false, "kernel_initializer": {"class_name": "GlorotUniform", "config": {"seed": null}}, "bias_initializer": {"class_name": "Zeros", "config": {}}, "kernel_regularizer": null, "bias_regularizer": null, "activity_regularizer": null, "kernel_constraint": null, "bias_constraint": null}, "name": "dendrites_dec_layer2_conv2", "inbound_nodes": [[["dendrites_dec_layer2_conv1_activation", 0, 0, {}]]]}, {"class_name": "Conv2D", "config": {"name": "spines_dec_layer2_conv2", "trainable": true, "dtype": "float32", "filters": 64, "kernel_size": [3, 3], "strides": [1, 1], "padding": "same", "data_format": "channels_last", "dilation_rate": [1, 1], "groups": 1, "activation": "linear", "use_bias": false, "kernel_initializer": {"class_name": "GlorotUniform", "config": {"seed": null}}, "bias_initializer": {"class_name": "Zeros", "config": {}}, "kernel_regularizer": null, "bias_regularizer": null, "activity_regularizer": null, "kernel_constraint": null, "bias_constraint": null}, "name": "spines_dec_layer2_conv2", "inbound_nodes": [[["spines_dec_layer2_conv1_activation", 0, 0, {}]]]}, {"class_name": "BatchNormalization", "config": {"name": "dendrites_dec_layer2_conv2_BN", "trainable": true, "dtype": "float32", "axis": [3], "momentum": 0.99, "epsilon": 0.001, "center": true, "scale": true, "beta_initializer": {"class_name": "Zeros", "config": {}}, "gamma_initializer": {"class_name": "Ones", "config": {}}, "moving_mean_initializer": {"class_name": "Zeros", "config": {}}, "moving_variance_initializer": {"class_name": "Ones", "config": {}}, "beta_regularizer": null, "gamma_regularizer": null, "beta_constraint": null, "gamma_constraint": null}, "name": "dendrites_dec_layer2_conv2_BN", "inbound_nodes": [[["dendrites_dec_layer2_conv2", 0, 0, {}]]]}, {"class_name": "BatchNormalization", "config": {"name": "spines_dec_layer2_conv2_BN", "trainable": true, "dtype": "float32", "axis": [3], "momentum": 0.99, "epsilon": 0.001, "center": true, "scale": true, "beta_initializer": {"class_name": "Zeros", "config": {}}, "gamma_initializer": {"class_name": "Ones", "config": {}}, "moving_mean_initializer": {"class_name": "Zeros", "config": {}}, "moving_variance_initializer": {"class_name": "Ones", "config": {}}, "beta_regularizer": null, "gamma_regularizer": null, "beta_constraint": null, "gamma_constraint": null}, "name": "spines_dec_layer2_conv2_BN", "inbound_nodes": [[["spines_dec_layer2_conv2", 0, 0, {}]]]}, {"class_name": "Activation", "config": {"name": "dendrites_dec_layer2_conv2_activation", "trainable": true, "dtype": "float32", "activation": "swish"}, "name": "dendrites_dec_layer2_conv2_activation", "inbound_nodes": [[["dendrites_dec_layer2_conv2_BN", 0, 0, {}]]]}, {"class_name": "Activation", "config": {"name": "spines_dec_layer2_conv2_activation", "trainable": true, "dtype": "float32", "activation": "swish"}, "name": "spines_dec_layer2_conv2_activation", "inbound_nodes": [[["spines_dec_layer2_conv2_BN", 0, 0, {}]]]}, {"class_name": "UpSampling2D", "config": {"name": "up_sampling2d_259", "trainable": true, "dtype": "float32", "size": [2, 2], "data_format": "channels_last", "interpolation": "nearest"}, "name": "up_sampling2d_259", "inbound_nodes": [[["dendrites_dec_layer2_conv2_activation", 0, 0, {}]]]}, {"class_name": "UpSampling2D", "config": {"name": "up_sampling2d_263", "trainable": true, "dtype": "float32", "size": [2, 2], "data_format": "channels_last", "interpolation": "nearest"}, "name": "up_sampling2d_263", "inbound_nodes": [[["spines_dec_layer2_conv2_activation", 0, 0, {}]]]}, {"class_name": "Concatenate", "config": {"name": "concatenate_259", "trainable": true, "dtype": "float32", "axis": -1}, "name": "concatenate_259", "inbound_nodes": [[["up_sampling2d_259", 0, 0, {}], ["enc_layer0_conv2_activation", 0, 0, {}]]]}, {"class_name": "Concatenate", "config": {"name": "concatenate_263", "trainable": true, "dtype": "float32", "axis": -1}, "name": "concatenate_263", "inbound_nodes": [[["up_sampling2d_263", 0, 0, {}], ["enc_layer0_conv2_activation", 0, 0, {}]]]}, {"class_name": "Conv2D", "config": {"name": "dendrites_dec_layer1_conv1", "trainable": true, "dtype": "float32", "filters": 32, "kernel_size": [3, 3], "strides": [1, 1], "padding": "same", "data_format": "channels_last", "dilation_rate": [1, 1], "groups": 1, "activation": "linear", "use_bias": false, "kernel_initializer": {"class_name": "GlorotUniform", "config": {"seed": null}}, "bias_initializer": {"class_name": "Zeros", "config": {}}, "kernel_regularizer": null, "bias_regularizer": null, "activity_regularizer": null, "kernel_constraint": null, "bias_constraint": null}, "name": "dendrites_dec_layer1_conv1", "inbound_nodes": [[["concatenate_259", 0, 0, {}]]]}, {"class_name": "Conv2D", "config": {"name": "spines_dec_layer1_conv1", "trainable": true, "dtype": "float32", "filters": 32, "kernel_size": [3, 3], "strides": [1, 1], "padding": "same", "data_format": "channels_last", "dilation_rate": [1, 1], "groups": 1, "activation": "linear", "use_bias": false, "kernel_initializer": {"class_name": "GlorotUniform", "config": {"seed": null}}, "bias_initializer": {"class_name": "Zeros", "config": {}}, "kernel_regularizer": null, "bias_regularizer": null, "activity_regularizer": null, "kernel_constraint": null, "bias_constraint": null}, "name": "spines_dec_layer1_conv1", "inbound_nodes": [[["concatenate_263", 0, 0, {}]]]}, {"class_name": "BatchNormalization", "config": {"name": "dendrites_dec_layer1_conv1_BN", "trainable": true, "dtype": "float32", "axis": [3], "momentum": 0.99, "epsilon": 0.001, "center": true, "scale": true, "beta_initializer": {"class_name": "Zeros", "config": {}}, "gamma_initializer": {"class_name": "Ones", "config": {}}, "moving_mean_initializer": {"class_name": "Zeros", "config": {}}, "moving_variance_initializer": {"class_name": "Ones", "config": {}}, "beta_regularizer": null, "gamma_regularizer": null, "beta_constraint": null, "gamma_constraint": null}, "name": "dendrites_dec_layer1_conv1_BN", "inbound_nodes": [[["dendrites_dec_layer1_conv1", 0, 0, {}]]]}, {"class_name": "BatchNormalization", "config": {"name": "spines_dec_layer1_conv1_BN", "trainable": true, "dtype": "float32", "axis": [3], "momentum": 0.99, "epsilon": 0.001, "center": true, "scale": true, "beta_initializer": {"class_name": "Zeros", "config": {}}, "gamma_initializer": {"class_name": "Ones", "config": {}}, "moving_mean_initializer": {"class_name": "Zeros", "config": {}}, "moving_variance_initializer": {"class_name": "Ones", "config": {}}, "beta_regularizer": null, "gamma_regularizer": null, "beta_constraint": null, "gamma_constraint": null}, "name": "spines_dec_layer1_conv1_BN", "inbound_nodes": [[["spines_dec_layer1_conv1", 0, 0, {}]]]}, {"class_name": "Activation", "config": {"name": "dendrites_dec_layer1_conv1_activation", "trainable": true, "dtype": "float32", "activation": "swish"}, "name": "dendrites_dec_layer1_conv1_activation", "inbound_nodes": [[["dendrites_dec_layer1_conv1_BN", 0, 0, {}]]]}, {"class_name": "Activation", "config": {"name": "spines_dec_layer1_conv1_activation", "trainable": true, "dtype": "float32", "activation": "swish"}, "name": "spines_dec_layer1_conv1_activation", "inbound_nodes": [[["spines_dec_layer1_conv1_BN", 0, 0, {}]]]}, {"class_name": "Conv2D", "config": {"name": "dendrites_dec_layer1_conv2", "trainable": true, "dtype": "float32", "filters": 32, "kernel_size": [3, 3], "strides": [1, 1], "padding": "same", "data_format": "channels_last", "dilation_rate": [1, 1], "groups": 1, "activation": "linear", "use_bias": false, "kernel_initializer": {"class_name": "GlorotUniform", "config": {"seed": null}}, "bias_initializer": {"class_name": "Zeros", "config": {}}, "kernel_regularizer": null, "bias_regularizer": null, "activity_regularizer": null, "kernel_constraint": null, "bias_constraint": null}, "name": "dendrites_dec_layer1_conv2", "inbound_nodes": [[["dendrites_dec_layer1_conv1_activation", 0, 0, {}]]]}, {"class_name": "Conv2D", "config": {"name": "spines_dec_layer1_conv2", "trainable": true, "dtype": "float32", "filters": 32, "kernel_size": [3, 3], "strides": [1, 1], "padding": "same", "data_format": "channels_last", "dilation_rate": [1, 1], "groups": 1, "activation": "linear", "use_bias": false, "kernel_initializer": {"class_name": "GlorotUniform", "config": {"seed": null}}, "bias_initializer": {"class_name": "Zeros", "config": {}}, "kernel_regularizer": null, "bias_regularizer": null, "activity_regularizer": null, "kernel_constraint": null, "bias_constraint": null}, "name": "spines_dec_layer1_conv2", "inbound_nodes": [[["spines_dec_layer1_conv1_activation", 0, 0, {}]]]}, {"class_name": "BatchNormalization", "config": {"name": "dendrites_dec_layer1_conv2_BN", "trainable": true, "dtype": "float32", "axis": [3], "momentum": 0.99, "epsilon": 0.001, "center": true, "scale": true, "beta_initializer": {"class_name": "Zeros", "config": {}}, "gamma_initializer": {"class_name": "Ones", "config": {}}, "moving_mean_initializer": {"class_name": "Zeros", "config": {}}, "moving_variance_initializer": {"class_name": "Ones", "config": {}}, "beta_regularizer": null, "gamma_regularizer": null, "beta_constraint": null, "gamma_constraint": null}, "name": "dendrites_dec_layer1_conv2_BN", "inbound_nodes": [[["dendrites_dec_layer1_conv2", 0, 0, {}]]]}, {"class_name": "BatchNormalization", "config": {"name": "spines_dec_layer1_conv2_BN", "trainable": true, "dtype": "float32", "axis": [3], "momentum": 0.99, "epsilon": 0.001, "center": true, "scale": true, "beta_initializer": {"class_name": "Zeros", "config": {}}, "gamma_initializer": {"class_name": "Ones", "config": {}}, "moving_mean_initializer": {"class_name": "Zeros", "config": {}}, "moving_variance_initializer": {"class_name": "Ones", "config": {}}, "beta_regularizer": null, "gamma_regularizer": null, "beta_constraint": null, "gamma_constraint": null}, "name": "spines_dec_layer1_conv2_BN", "inbound_nodes": [[["spines_dec_layer1_conv2", 0, 0, {}]]]}, {"class_name": "Activation", "config": {"name": "dendrites_dec_layer1_conv2_activation", "trainable": true, "dtype": "float32", "activation": "swish"}, "name": "dendrites_dec_layer1_conv2_activation", "inbound_nodes": [[["dendrites_dec_layer1_conv2_BN", 0, 0, {}]]]}, {"class_name": "Activation", "config": {"name": "spines_dec_layer1_conv2_activation", "trainable": true, "dtype": "float32", "activation": "swish"}, "name": "spines_dec_layer1_conv2_activation", "inbound_nodes": [[["spines_dec_layer1_conv2_BN", 0, 0, {}]]]}, {"class_name": "Conv2D", "config": {"name": "dendrites", "trainable": true, "dtype": "float32", "filters": 1, "kernel_size": [1, 1], "strides": [1, 1], "padding": "same", "data_format": "channels_last", "dilation_rate": [1, 1], "groups": 1, "activation": "sigmoid", "use_bias": true, "kernel_initializer": {"class_name": "GlorotUniform", "config": {"seed": null}}, "bias_initializer": {"class_name": "Zeros", "config": {}}, "kernel_regularizer": null, "bias_regularizer": null, "activity_regularizer": null, "kernel_constraint": null, "bias_constraint": null}, "name": "dendrites", "inbound_nodes": [[["dendrites_dec_layer1_conv2_activation", 0, 0, {}]]]}, {"class_name": "Conv2D", "config": {"name": "spines", "trainable": true, "dtype": "float32", "filters": 1, "kernel_size": [1, 1], "strides": [1, 1], "padding": "same", "data_format": "channels_last", "dilation_rate": [1, 1], "groups": 1, "activation": "sigmoid", "use_bias": true, "kernel_initializer": {"class_name": "GlorotUniform", "config": {"seed": null}}, "bias_initializer": {"class_name": "Zeros", "config": {}}, "kernel_regularizer": null, "bias_regularizer": null, "activity_regularizer": null, "kernel_constraint": null, "bias_constraint": null}, "name": "spines", "inbound_nodes": [[["spines_dec_layer1_conv2_activation", 0, 0, {}]]]}], "input_layers": [["input", 0, 0]], "output_layers": [["dendrites", 0, 0], ["spines", 0, 0]]}}}, "weightsManifest": [{"paths": ["group1-shard1of9.bin", "group1-shard2of9.bin", "group1-shard3of9.bin", "group1-shard4of9.bin", "group1-shard5of9.bin", "group1-shard6of9.bin", "group1-shard7of9.bin", "group1-shard8of9.bin", "group1-shard9of9.bin"], "weights": [{"name": "dendrites/kernel", "shape": [1, 1, 32, 1], "dtype": "float32"}, {"name": "dendrites/bias", "shape": [1], "dtype": "float32"}, {"name": "dendrites_dec_layer1_conv1/kernel", "shape": [3, 3, 96, 32], "dtype": "float32"}, {"name": "dendrites_dec_layer1_conv1_BN/gamma", "shape": [32], "dtype": "float32"}, {"name": "dendrites_dec_layer1_conv1_BN/beta", "shape": [32], "dtype": "float32"}, {"name": "dendrites_dec_layer1_conv1_BN/moving_mean", "shape": [32], "dtype": "float32"}, {"name": "dendrites_dec_layer1_conv1_BN/moving_variance", "shape": [32], "dtype": "float32"}, {"name": "dendrites_dec_layer1_conv2/kernel", "shape": [3, 3, 32, 32], "dtype": "float32"}, {"name": "dendrites_dec_layer1_conv2_BN/gamma", "shape": [32], "dtype": "float32"}, {"name": "dendrites_dec_layer1_conv2_BN/beta", "shape": [32], "dtype": "float32"}, {"name": "dendrites_dec_layer1_conv2_BN/moving_mean", "shape": [32], "dtype": "float32"}, {"name": "dendrites_dec_layer1_conv2_BN/moving_variance", "shape": [32], "dtype": "float32"}, {"name": "dendrites_dec_layer2_conv1/kernel", "shape": [3, 3, 192, 64], "dtype": "float32"}, {"name": "dendrites_dec_layer2_conv1_BN/gamma", "shape": [64], "dtype": "float32"}, {"name": "dendrites_dec_layer2_conv1_BN/beta", "shape": [64], "dtype": "float32"}, {"name": "dendrites_dec_layer2_conv1_BN/moving_mean", "shape": [64], "dtype": "float32"}, {"name": "dendrites_dec_layer2_conv1_BN/moving_variance", "shape": [64], "dtype": "float32"}, {"name": "dendrites_dec_layer2_conv2/kernel", "shape": [3, 3, 64, 64], "dtype": "float32"}, {"name": "dendrites_dec_layer2_conv2_BN/gamma", "shape": [64], "dtype": "float32"}, {"name": "dendrites_dec_layer2_conv2_BN/beta", "shape": [64], "dtype": "float32"}, {"name": "dendrites_dec_layer2_conv2_BN/moving_mean", "shape": [64], "dtype": "float32"}, {"name": "dendrites_dec_layer2_conv2_BN/moving_variance", "shape": [64], "dtype": "float32"}, {"name": "dendrites_dec_layer3_conv1/kernel", "shape": [3, 3, 384, 128], "dtype": "float32"}, {"name": "dendrites_dec_layer3_conv1_BN/gamma", "shape": [128], "dtype": "float32"}, {"name": "dendrites_dec_layer3_conv1_BN/beta", "shape": [128], "dtype": "float32"}, {"name": "dendrites_dec_layer3_conv1_BN/moving_mean", "shape": [128], "dtype": "float32"}, {"name": "dendrites_dec_layer3_conv1_BN/moving_variance", "shape": [128], "dtype": "float32"}, {"name": "dendrites_dec_layer3_conv2/kernel", "shape": [3, 3, 128, 128], "dtype": "float32"}, {"name": "dendrites_dec_layer3_conv2_BN/gamma", "shape": [128], "dtype": "float32"}, {"name": "dendrites_dec_layer3_conv2_BN/beta", "shape": [128], "dtype": "float32"}, {"name": "dendrites_dec_layer3_conv2_BN/moving_mean", "shape": [128], "dtype": "float32"}, {"name": "dendrites_dec_layer3_conv2_BN/moving_variance", "shape": [128], "dtype": "float32"}, {"name": "dendrites_dec_layer4_conv1/kernel", "shape": [3, 3, 768, 256], "dtype": "float32"}, {"name": "dendrites_dec_layer4_conv1_BN/gamma", "shape": [256], "dtype": "float32"}, {"name": "dendrites_dec_layer4_conv1_BN/beta", "shape": [256], "dtype": "float32"}, {"name": "dendrites_dec_layer4_conv1_BN/moving_mean", "shape": [256], "dtype": "float32"}, {"name": "dendrites_dec_layer4_conv1_BN/moving_variance", "shape": [256], "dtype": "float32"}, {"name": "dendrites_dec_layer4_conv2/kernel", "shape": [3, 3, 256, 256], "dtype": "float32"}, {"name": "dendrites_dec_layer4_conv2_BN/gamma", "shape": [256], "dtype": "float32"}, {"name": "dendrites_dec_layer4_conv2_BN/beta", "shape": [256], "dtype": "float32"}, {"name": "dendrites_dec_layer4_conv2_BN/moving_mean", "shape": [256], "dtype": "float32"}, {"name": "dendrites_dec_layer4_conv2_BN/moving_variance", "shape": [256], "dtype": "float32"}, {"name": "enc_layer0_conv1/kernel", "shape": [3, 3, 1, 32], "dtype": "float32"}, {"name": "enc_layer0_conv1_BN/gamma", "shape": [32], "dtype": "float32"}, {"name": "enc_layer0_conv1_BN/beta", "shape": [32], "dtype": "float32"}, {"name": "enc_layer0_conv1_BN/moving_mean", "shape": [32], "dtype": "float32"}, {"name": "enc_layer0_conv1_BN/moving_variance", "shape": [32], "dtype": "float32"}, {"name": "enc_layer0_conv2/kernel", "shape": [3, 3, 32, 32], "dtype": "float32"}, {"name": "enc_layer0_conv2_BN/gamma", "shape": [32], "dtype": "float32"}, {"name": "enc_layer0_conv2_BN/beta", "shape": [32], "dtype": "float32"}, {"name": "enc_layer0_conv2_BN/moving_mean", "shape": [32], "dtype": "float32"}, {"name": "enc_layer0_conv2_BN/moving_variance", "shape": [32], "dtype": "float32"}, {"name": "enc_layer0_identity/kernel", "shape": [1, 1, 1, 32], "dtype": "float32"}, {"name": "enc_layer1_conv1/kernel", "shape": [3, 3, 32, 64], "dtype": "float32"}, {"name": "enc_layer1_conv1_BN/gamma", "shape": [64], "dtype": "float32"}, {"name": "enc_layer1_conv1_BN/beta", "shape": [64], "dtype": "float32"}, {"name": "enc_layer1_conv1_BN/moving_mean", "shape": [64], "dtype": "float32"}, {"name": "enc_layer1_conv1_BN/moving_variance", "shape": [64], "dtype": "float32"}, {"name": "enc_layer1_conv2/kernel", "shape": [3, 3, 64, 64], "dtype": "float32"}, {"name": "enc_layer1_conv2_BN/gamma", "shape": [64], "dtype": "float32"}, {"name": "enc_layer1_conv2_BN/beta", "shape": [64], "dtype": "float32"}, {"name": "enc_layer1_conv2_BN/moving_mean", "shape": [64], "dtype": "float32"}, {"name": "enc_layer1_conv2_BN/moving_variance", "shape": [64], "dtype": "float32"}, {"name": "enc_layer1_identity/kernel", "shape": [1, 1, 32, 64], "dtype": "float32"}, {"name": "enc_layer2_conv1/kernel", "shape": [3, 3, 64, 128], "dtype": "float32"}, {"name": "enc_layer2_conv1_BN/gamma", "shape": [128], "dtype": "float32"}, {"name": "enc_layer2_conv1_BN/beta", "shape": [128], "dtype": "float32"}, {"name": "enc_layer2_conv1_BN/moving_mean", "shape": [128], "dtype": "float32"}, {"name": "enc_layer2_conv1_BN/moving_variance", "shape": [128], "dtype": "float32"}, {"name": "enc_layer2_conv2/kernel", "shape": [3, 3, 128, 128], "dtype": "float32"}, {"name": "enc_layer2_conv2_BN/gamma", "shape": [128], "dtype": "float32"}, {"name": "enc_layer2_conv2_BN/beta", "shape": [128], "dtype": "float32"}, {"name": "enc_layer2_conv2_BN/moving_mean", "shape": [128], "dtype": "float32"}, {"name": "enc_layer2_conv2_BN/moving_variance", "shape": [128], "dtype": "float32"}, {"name": "enc_layer2_identity/kernel", "shape": [1, 1, 64, 128], "dtype": "float32"}, {"name": "enc_layer3_conv1/kernel", "shape": [3, 3, 128, 256], "dtype": "float32"}, {"name": "enc_layer3_conv1_BN/gamma", "shape": [256], "dtype": "float32"}, {"name": "enc_layer3_conv1_BN/beta", "shape": [256], "dtype": "float32"}, {"name": "enc_layer3_conv1_BN/moving_mean", "shape": [256], "dtype": "float32"}, {"name": "enc_layer3_conv1_BN/moving_variance", "shape": [256], "dtype": "float32"}, {"name": "enc_layer3_conv2/kernel", "shape": [3, 3, 256, 256], "dtype": "float32"}, {"name": "enc_layer3_conv2_BN/gamma", "shape": [256], "dtype": "float32"}, {"name": "enc_layer3_conv2_BN/beta", "shape": [256], "dtype": "float32"}, {"name": "enc_layer3_conv2_BN/moving_mean", "shape": [256], "dtype": "float32"}, {"name": "enc_layer3_conv2_BN/moving_variance", "shape": [256], "dtype": "float32"}, {"name": "enc_layer3_identity/kernel", "shape": [1, 1, 128, 256], "dtype": "float32"}, {"name": "latent_conv/kernel", "shape": [3, 3, 256, 512], "dtype": "float32"}, {"name": "latent_conv_BN/gamma", "shape": [512], "dtype": "float32"}, {"name": "latent_conv_BN/beta", "shape": [512], "dtype": "float32"}, {"name": "latent_conv_BN/moving_mean", "shape": [512], "dtype": "float32"}, {"name": "latent_conv_BN/moving_variance", "shape": [512], "dtype": "float32"}, {"name": "spines/kernel", "shape": [1, 1, 32, 1], "dtype": "float32"}, {"name": "spines/bias", "shape": [1], "dtype": "float32"}, {"name": "spines_dec_layer1_conv1/kernel", "shape": [3, 3, 96, 32], "dtype": "float32"}, {"name": "spines_dec_layer1_conv1_BN/gamma", "shape": [32], "dtype": "float32"}, {"name": "spines_dec_layer1_conv1_BN/beta", "shape": [32], "dtype": "float32"}, {"name": "spines_dec_layer1_conv1_BN/moving_mean", "shape": [32], "dtype": "float32"}, {"name": "spines_dec_layer1_conv1_BN/moving_variance", "shape": [32], "dtype": "float32"}, {"name": "spines_dec_layer1_conv2/kernel", "shape": [3, 3, 32, 32], "dtype": "float32"}, {"name": "spines_dec_layer1_conv2_BN/gamma", "shape": [32], "dtype": "float32"}, {"name": "spines_dec_layer1_conv2_BN/beta", "shape": [32], "dtype": "float32"}, {"name": "spines_dec_layer1_conv2_BN/moving_mean", "shape": [32], "dtype": "float32"}, {"name": "spines_dec_layer1_conv2_BN/moving_variance", "shape": [32], "dtype": "float32"}, {"name": "spines_dec_layer2_conv1/kernel", "shape": [3, 3, 192, 64], "dtype": "float32"}, {"name": "spines_dec_layer2_conv1_BN/gamma", "shape": [64], "dtype": "float32"}, {"name": "spines_dec_layer2_conv1_BN/beta", "shape": [64], "dtype": "float32"}, {"name": "spines_dec_layer2_conv1_BN/moving_mean", "shape": [64], "dtype": "float32"}, {"name": "spines_dec_layer2_conv1_BN/moving_variance", "shape": [64], "dtype": "float32"}, {"name": "spines_dec_layer2_conv2/kernel", "shape": [3, 3, 64, 64], "dtype": "float32"}, {"name": "spines_dec_layer2_conv2_BN/gamma", "shape": [64], "dtype": "float32"}, {"name": "spines_dec_layer2_conv2_BN/beta", "shape": [64], "dtype": "float32"}, {"name": "spines_dec_layer2_conv2_BN/moving_mean", "shape": [64], "dtype": "float32"}, {"name": "spines_dec_layer2_conv2_BN/moving_variance", "shape": [64], "dtype": "float32"}, {"name": "spines_dec_layer3_conv1/kernel", "shape": [3, 3, 384, 128], "dtype": "float32"}, {"name": "spines_dec_layer3_conv1_BN/gamma", "shape": [128], "dtype": "float32"}, {"name": "spines_dec_layer3_conv1_BN/beta", "shape": [128], "dtype": "float32"}, {"name": "spines_dec_layer3_conv1_BN/moving_mean", "shape": [128], "dtype": "float32"}, {"name": "spines_dec_layer3_conv1_BN/moving_variance", "shape": [128], "dtype": "float32"}, {"name": "spines_dec_layer3_conv2/kernel", "shape": [3, 3, 128, 128], "dtype": "float32"}, {"name": "spines_dec_layer3_conv2_BN/gamma", "shape": [128], "dtype": "float32"}, {"name": "spines_dec_layer3_conv2_BN/beta", "shape": [128], "dtype": "float32"}, {"name": "spines_dec_layer3_conv2_BN/moving_mean", "shape": [128], "dtype": "float32"}, {"name": "spines_dec_layer3_conv2_BN/moving_variance", "shape": [128], "dtype": "float32"}, {"name": "spines_dec_layer4_conv1/kernel", "shape": [3, 3, 768, 256], "dtype": "float32"}, {"name": "spines_dec_layer4_conv1_BN/gamma", "shape": [256], "dtype": "float32"}, {"name": "spines_dec_layer4_conv1_BN/beta", "shape": [256], "dtype": "float32"}, {"name": "spines_dec_layer4_conv1_BN/moving_mean", "shape": [256], "dtype": "float32"}, {"name": "spines_dec_layer4_conv1_BN/moving_variance", "shape": [256], "dtype": "float32"}, {"name": "spines_dec_layer4_conv2/kernel", "shape": [3, 3, 256, 256], "dtype": "float32"}, {"name": "spines_dec_layer4_conv2_BN/gamma", "shape": [256], "dtype": "float32"}, {"name": "spines_dec_layer4_conv2_BN/beta", "shape": [256], "dtype": "float32"}, {"name": "spines_dec_layer4_conv2_BN/moving_mean", "shape": [256], "dtype": "float32"}, {"name": "spines_dec_layer4_conv2_BN/moving_variance", "shape": [256], "dtype": "float32"}]}]}