{
    "format": "layers-model",
    "generatedBy": "keras v2.10.0",
    "convertedBy": "TensorFlow.js Converter v3.21.0",
    "modelTopology": {
        "keras_version": "2.10.0",
        "backend": "tensorflow",
        "model_config": {
            "class_name": "Functional",
            "config": {
                "name": "model",
                "layers": [
                    {
                        "class_name": "InputLayer",
                        "config": {
                            "batch_input_shape": [
                                null,
                                256,
                                256,
                                3
                            ],
                            "dtype": "float32",
                            "sparse": false,
                            "ragged": false,
                            "name": "input_1"
                        },
                        "name": "input_1",
                        "inbound_nodes": []
                    },
                    {
                        "class_name": "Conv2D",
                        "config": {
                            "name": "conv2d",
                            "trainable": true,
                            "dtype": "float32",
                            "filters": 64,
                            "kernel_size": [
                                3,
                                3
                            ],
                            "strides": [
                                1,
                                1
                            ],
                            "padding": "same",
                            "data_format": "channels_last",
                            "dilation_rate": [
                                1,
                                1
                            ],
                            "groups": 1,
                            "activation": "relu",
                            "use_bias": true,
                            "kernel_initializer": {
                                "class_name": "GlorotUniform",
                                "config": {
                                    "seed": null
                                }
                            },
                            "bias_initializer": {
                                "class_name": "Zeros",
                                "config": {}
                            },
                            "kernel_regularizer": null,
                            "bias_regularizer": null,
                            "activity_regularizer": null,
                            "kernel_constraint": null,
                            "bias_constraint": null
                        },
                        "name": "conv2d",
                        "inbound_nodes": [
                            [
                                [
                                    "input_1",
                                    0,
                                    0,
                                    {}
                                ]
                            ]
                        ]
                    },
                    {
                        "class_name": "Conv2D",
                        "config": {
                            "name": "conv2d_1",
                            "trainable": true,
                            "dtype": "float32",
                            "filters": 64,
                            "kernel_size": [
                                3,
                                3
                            ],
                            "strides": [
                                1,
                                1
                            ],
                            "padding": "same",
                            "data_format": "channels_last",
                            "dilation_rate": [
                                1,
                                1
                            ],
                            "groups": 1,
                            "activation": "relu",
                            "use_bias": true,
                            "kernel_initializer": {
                                "class_name": "GlorotUniform",
                                "config": {
                                    "seed": null
                                }
                            },
                            "bias_initializer": {
                                "class_name": "Zeros",
                                "config": {}
                            },
                            "kernel_regularizer": null,
                            "bias_regularizer": null,
                            "activity_regularizer": null,
                            "kernel_constraint": null,
                            "bias_constraint": null
                        },
                        "name": "conv2d_1",
                        "inbound_nodes": [
                            [
                                [
                                    "conv2d",
                                    0,
                                    0,
                                    {}
                                ]
                            ]
                        ]
                    },
                    {
                        "class_name": "MaxPooling2D",
                        "config": {
                            "name": "max_pooling2d",
                            "trainable": true,
                            "dtype": "float32",
                            "pool_size": [
                                2,
                                2
                            ],
                            "padding": "valid",
                            "strides": [
                                2,
                                2
                            ],
                            "data_format": "channels_last"
                        },
                        "name": "max_pooling2d",
                        "inbound_nodes": [
                            [
                                [
                                    "conv2d_1",
                                    0,
                                    0,
                                    {}
                                ]
                            ]
                        ]
                    },
                    {
                        "class_name": "Conv2D",
                        "config": {
                            "name": "conv2d_2",
                            "trainable": true,
                            "dtype": "float32",
                            "filters": 128,
                            "kernel_size": [
                                3,
                                3
                            ],
                            "strides": [
                                1,
                                1
                            ],
                            "padding": "same",
                            "data_format": "channels_last",
                            "dilation_rate": [
                                1,
                                1
                            ],
                            "groups": 1,
                            "activation": "relu",
                            "use_bias": true,
                            "kernel_initializer": {
                                "class_name": "GlorotUniform",
                                "config": {
                                    "seed": null
                                }
                            },
                            "bias_initializer": {
                                "class_name": "Zeros",
                                "config": {}
                            },
                            "kernel_regularizer": null,
                            "bias_regularizer": null,
                            "activity_regularizer": null,
                            "kernel_constraint": null,
                            "bias_constraint": null
                        },
                        "name": "conv2d_2",
                        "inbound_nodes": [
                            [
                                [
                                    "max_pooling2d",
                                    0,
                                    0,
                                    {}
                                ]
                            ]
                        ]
                    },
                    {
                        "class_name": "Conv2D",
                        "config": {
                            "name": "conv2d_3",
                            "trainable": true,
                            "dtype": "float32",
                            "filters": 128,
                            "kernel_size": [
                                3,
                                3
                            ],
                            "strides": [
                                1,
                                1
                            ],
                            "padding": "same",
                            "data_format": "channels_last",
                            "dilation_rate": [
                                1,
                                1
                            ],
                            "groups": 1,
                            "activation": "relu",
                            "use_bias": true,
                            "kernel_initializer": {
                                "class_name": "GlorotUniform",
                                "config": {
                                    "seed": null
                                }
                            },
                            "bias_initializer": {
                                "class_name": "Zeros",
                                "config": {}
                            },
                            "kernel_regularizer": null,
                            "bias_regularizer": null,
                            "activity_regularizer": null,
                            "kernel_constraint": null,
                            "bias_constraint": null
                        },
                        "name": "conv2d_3",
                        "inbound_nodes": [
                            [
                                [
                                    "conv2d_2",
                                    0,
                                    0,
                                    {}
                                ]
                            ]
                        ]
                    },
                    {
                        "class_name": "MaxPooling2D",
                        "config": {
                            "name": "max_pooling2d_1",
                            "trainable": true,
                            "dtype": "float32",
                            "pool_size": [
                                2,
                                2
                            ],
                            "padding": "valid",
                            "strides": [
                                2,
                                2
                            ],
                            "data_format": "channels_last"
                        },
                        "name": "max_pooling2d_1",
                        "inbound_nodes": [
                            [
                                [
                                    "conv2d_3",
                                    0,
                                    0,
                                    {}
                                ]
                            ]
                        ]
                    },
                    {
                        "class_name": "Conv2D",
                        "config": {
                            "name": "conv2d_4",
                            "trainable": true,
                            "dtype": "float32",
                            "filters": 256,
                            "kernel_size": [
                                3,
                                3
                            ],
                            "strides": [
                                1,
                                1
                            ],
                            "padding": "same",
                            "data_format": "channels_last",
                            "dilation_rate": [
                                1,
                                1
                            ],
                            "groups": 1,
                            "activation": "relu",
                            "use_bias": true,
                            "kernel_initializer": {
                                "class_name": "GlorotUniform",
                                "config": {
                                    "seed": null
                                }
                            },
                            "bias_initializer": {
                                "class_name": "Zeros",
                                "config": {}
                            },
                            "kernel_regularizer": null,
                            "bias_regularizer": null,
                            "activity_regularizer": null,
                            "kernel_constraint": null,
                            "bias_constraint": null
                        },
                        "name": "conv2d_4",
                        "inbound_nodes": [
                            [
                                [
                                    "max_pooling2d_1",
                                    0,
                                    0,
                                    {}
                                ]
                            ]
                        ]
                    },
                    {
                        "class_name": "Conv2D",
                        "config": {
                            "name": "conv2d_5",
                            "trainable": true,
                            "dtype": "float32",
                            "filters": 256,
                            "kernel_size": [
                                3,
                                3
                            ],
                            "strides": [
                                1,
                                1
                            ],
                            "padding": "same",
                            "data_format": "channels_last",
                            "dilation_rate": [
                                1,
                                1
                            ],
                            "groups": 1,
                            "activation": "relu",
                            "use_bias": true,
                            "kernel_initializer": {
                                "class_name": "GlorotUniform",
                                "config": {
                                    "seed": null
                                }
                            },
                            "bias_initializer": {
                                "class_name": "Zeros",
                                "config": {}
                            },
                            "kernel_regularizer": null,
                            "bias_regularizer": null,
                            "activity_regularizer": null,
                            "kernel_constraint": null,
                            "bias_constraint": null
                        },
                        "name": "conv2d_5",
                        "inbound_nodes": [
                            [
                                [
                                    "conv2d_4",
                                    0,
                                    0,
                                    {}
                                ]
                            ]
                        ]
                    },
                    {
                        "class_name": "MaxPooling2D",
                        "config": {
                            "name": "max_pooling2d_2",
                            "trainable": true,
                            "dtype": "float32",
                            "pool_size": [
                                2,
                                2
                            ],
                            "padding": "valid",
                            "strides": [
                                2,
                                2
                            ],
                            "data_format": "channels_last"
                        },
                        "name": "max_pooling2d_2",
                        "inbound_nodes": [
                            [
                                [
                                    "conv2d_5",
                                    0,
                                    0,
                                    {}
                                ]
                            ]
                        ]
                    },
                    {
                        "class_name": "Conv2D",
                        "config": {
                            "name": "conv2d_6",
                            "trainable": true,
                            "dtype": "float32",
                            "filters": 512,
                            "kernel_size": [
                                3,
                                3
                            ],
                            "strides": [
                                1,
                                1
                            ],
                            "padding": "same",
                            "data_format": "channels_last",
                            "dilation_rate": [
                                1,
                                1
                            ],
                            "groups": 1,
                            "activation": "relu",
                            "use_bias": true,
                            "kernel_initializer": {
                                "class_name": "GlorotUniform",
                                "config": {
                                    "seed": null
                                }
                            },
                            "bias_initializer": {
                                "class_name": "Zeros",
                                "config": {}
                            },
                            "kernel_regularizer": null,
                            "bias_regularizer": null,
                            "activity_regularizer": null,
                            "kernel_constraint": null,
                            "bias_constraint": null
                        },
                        "name": "conv2d_6",
                        "inbound_nodes": [
                            [
                                [
                                    "max_pooling2d_2",
                                    0,
                                    0,
                                    {}
                                ]
                            ]
                        ]
                    },
                    {
                        "class_name": "Conv2D",
                        "config": {
                            "name": "conv2d_7",
                            "trainable": true,
                            "dtype": "float32",
                            "filters": 512,
                            "kernel_size": [
                                3,
                                3
                            ],
                            "strides": [
                                1,
                                1
                            ],
                            "padding": "same",
                            "data_format": "channels_last",
                            "dilation_rate": [
                                1,
                                1
                            ],
                            "groups": 1,
                            "activation": "relu",
                            "use_bias": true,
                            "kernel_initializer": {
                                "class_name": "GlorotUniform",
                                "config": {
                                    "seed": null
                                }
                            },
                            "bias_initializer": {
                                "class_name": "Zeros",
                                "config": {}
                            },
                            "kernel_regularizer": null,
                            "bias_regularizer": null,
                            "activity_regularizer": null,
                            "kernel_constraint": null,
                            "bias_constraint": null
                        },
                        "name": "conv2d_7",
                        "inbound_nodes": [
                            [
                                [
                                    "conv2d_6",
                                    0,
                                    0,
                                    {}
                                ]
                            ]
                        ]
                    },
                    {
                        "class_name": "UpSampling2D",
                        "config": {
                            "name": "up_sampling2d",
                            "trainable": true,
                            "dtype": "float32",
                            "size": [
                                2,
                                2
                            ],
                            "data_format": "channels_last",
                            "interpolation": "nearest"
                        },
                        "name": "up_sampling2d",
                        "inbound_nodes": [
                            [
                                [
                                    "conv2d_7",
                                    0,
                                    0,
                                    {}
                                ]
                            ]
                        ]
                    },
                    {
                        "class_name": "Conv2D",
                        "config": {
                            "name": "conv2d_8",
                            "trainable": true,
                            "dtype": "float32",
                            "filters": 256,
                            "kernel_size": [
                                2,
                                2
                            ],
                            "strides": [
                                1,
                                1
                            ],
                            "padding": "same",
                            "data_format": "channels_last",
                            "dilation_rate": [
                                1,
                                1
                            ],
                            "groups": 1,
                            "activation": "relu",
                            "use_bias": true,
                            "kernel_initializer": {
                                "class_name": "GlorotUniform",
                                "config": {
                                    "seed": null
                                }
                            },
                            "bias_initializer": {
                                "class_name": "Zeros",
                                "config": {}
                            },
                            "kernel_regularizer": null,
                            "bias_regularizer": null,
                            "activity_regularizer": null,
                            "kernel_constraint": null,
                            "bias_constraint": null
                        },
                        "name": "conv2d_8",
                        "inbound_nodes": [
                            [
                                [
                                    "up_sampling2d",
                                    0,
                                    0,
                                    {}
                                ]
                            ]
                        ]
                    },
                    {
                        "class_name": "Concatenate",
                        "config": {
                            "name": "concatenate",
                            "trainable": true,
                            "dtype": "float32",
                            "axis": 3
                        },
                        "name": "concatenate",
                        "inbound_nodes": [
                            [
                                [
                                    "conv2d_5",
                                    0,
                                    0,
                                    {}
                                ],
                                [
                                    "conv2d_8",
                                    0,
                                    0,
                                    {}
                                ]
                            ]
                        ]
                    },
                    {
                        "class_name": "Conv2D",
                        "config": {
                            "name": "conv2d_9",
                            "trainable": true,
                            "dtype": "float32",
                            "filters": 256,
                            "kernel_size": [
                                3,
                                3
                            ],
                            "strides": [
                                1,
                                1
                            ],
                            "padding": "same",
                            "data_format": "channels_last",
                            "dilation_rate": [
                                1,
                                1
                            ],
                            "groups": 1,
                            "activation": "relu",
                            "use_bias": true,
                            "kernel_initializer": {
                                "class_name": "GlorotUniform",
                                "config": {
                                    "seed": null
                                }
                            },
                            "bias_initializer": {
                                "class_name": "Zeros",
                                "config": {}
                            },
                            "kernel_regularizer": null,
                            "bias_regularizer": null,
                            "activity_regularizer": null,
                            "kernel_constraint": null,
                            "bias_constraint": null
                        },
                        "name": "conv2d_9",
                        "inbound_nodes": [
                            [
                                [
                                    "concatenate",
                                    0,
                                    0,
                                    {}
                                ]
                            ]
                        ]
                    },
                    {
                        "class_name": "Conv2D",
                        "config": {
                            "name": "conv2d_10",
                            "trainable": true,
                            "dtype": "float32",
                            "filters": 256,
                            "kernel_size": [
                                3,
                                3
                            ],
                            "strides": [
                                1,
                                1
                            ],
                            "padding": "same",
                            "data_format": "channels_last",
                            "dilation_rate": [
                                1,
                                1
                            ],
                            "groups": 1,
                            "activation": "relu",
                            "use_bias": true,
                            "kernel_initializer": {
                                "class_name": "GlorotUniform",
                                "config": {
                                    "seed": null
                                }
                            },
                            "bias_initializer": {
                                "class_name": "Zeros",
                                "config": {}
                            },
                            "kernel_regularizer": null,
                            "bias_regularizer": null,
                            "activity_regularizer": null,
                            "kernel_constraint": null,
                            "bias_constraint": null
                        },
                        "name": "conv2d_10",
                        "inbound_nodes": [
                            [
                                [
                                    "conv2d_9",
                                    0,
                                    0,
                                    {}
                                ]
                            ]
                        ]
                    },
                    {
                        "class_name": "UpSampling2D",
                        "config": {
                            "name": "up_sampling2d_1",
                            "trainable": true,
                            "dtype": "float32",
                            "size": [
                                2,
                                2
                            ],
                            "data_format": "channels_last",
                            "interpolation": "nearest"
                        },
                        "name": "up_sampling2d_1",
                        "inbound_nodes": [
                            [
                                [
                                    "conv2d_10",
                                    0,
                                    0,
                                    {}
                                ]
                            ]
                        ]
                    },
                    {
                        "class_name": "Conv2D",
                        "config": {
                            "name": "conv2d_11",
                            "trainable": true,
                            "dtype": "float32",
                            "filters": 128,
                            "kernel_size": [
                                2,
                                2
                            ],
                            "strides": [
                                1,
                                1
                            ],
                            "padding": "same",
                            "data_format": "channels_last",
                            "dilation_rate": [
                                1,
                                1
                            ],
                            "groups": 1,
                            "activation": "relu",
                            "use_bias": true,
                            "kernel_initializer": {
                                "class_name": "GlorotUniform",
                                "config": {
                                    "seed": null
                                }
                            },
                            "bias_initializer": {
                                "class_name": "Zeros",
                                "config": {}
                            },
                            "kernel_regularizer": null,
                            "bias_regularizer": null,
                            "activity_regularizer": null,
                            "kernel_constraint": null,
                            "bias_constraint": null
                        },
                        "name": "conv2d_11",
                        "inbound_nodes": [
                            [
                                [
                                    "up_sampling2d_1",
                                    0,
                                    0,
                                    {}
                                ]
                            ]
                        ]
                    },
                    {
                        "class_name": "Concatenate",
                        "config": {
                            "name": "concatenate_1",
                            "trainable": true,
                            "dtype": "float32",
                            "axis": 3
                        },
                        "name": "concatenate_1",
                        "inbound_nodes": [
                            [
                                [
                                    "conv2d_3",
                                    0,
                                    0,
                                    {}
                                ],
                                [
                                    "conv2d_11",
                                    0,
                                    0,
                                    {}
                                ]
                            ]
                        ]
                    },
                    {
                        "class_name": "Conv2D",
                        "config": {
                            "name": "conv2d_12",
                            "trainable": true,
                            "dtype": "float32",
                            "filters": 128,
                            "kernel_size": [
                                3,
                                3
                            ],
                            "strides": [
                                1,
                                1
                            ],
                            "padding": "same",
                            "data_format": "channels_last",
                            "dilation_rate": [
                                1,
                                1
                            ],
                            "groups": 1,
                            "activation": "relu",
                            "use_bias": true,
                            "kernel_initializer": {
                                "class_name": "GlorotUniform",
                                "config": {
                                    "seed": null
                                }
                            },
                            "bias_initializer": {
                                "class_name": "Zeros",
                                "config": {}
                            },
                            "kernel_regularizer": null,
                            "bias_regularizer": null,
                            "activity_regularizer": null,
                            "kernel_constraint": null,
                            "bias_constraint": null
                        },
                        "name": "conv2d_12",
                        "inbound_nodes": [
                            [
                                [
                                    "concatenate_1",
                                    0,
                                    0,
                                    {}
                                ]
                            ]
                        ]
                    },
                    {
                        "class_name": "Conv2D",
                        "config": {
                            "name": "conv2d_13",
                            "trainable": true,
                            "dtype": "float32",
                            "filters": 128,
                            "kernel_size": [
                                3,
                                3
                            ],
                            "strides": [
                                1,
                                1
                            ],
                            "padding": "same",
                            "data_format": "channels_last",
                            "dilation_rate": [
                                1,
                                1
                            ],
                            "groups": 1,
                            "activation": "relu",
                            "use_bias": true,
                            "kernel_initializer": {
                                "class_name": "GlorotUniform",
                                "config": {
                                    "seed": null
                                }
                            },
                            "bias_initializer": {
                                "class_name": "Zeros",
                                "config": {}
                            },
                            "kernel_regularizer": null,
                            "bias_regularizer": null,
                            "activity_regularizer": null,
                            "kernel_constraint": null,
                            "bias_constraint": null
                        },
                        "name": "conv2d_13",
                        "inbound_nodes": [
                            [
                                [
                                    "conv2d_12",
                                    0,
                                    0,
                                    {}
                                ]
                            ]
                        ]
                    },
                    {
                        "class_name": "UpSampling2D",
                        "config": {
                            "name": "up_sampling2d_2",
                            "trainable": true,
                            "dtype": "float32",
                            "size": [
                                2,
                                2
                            ],
                            "data_format": "channels_last",
                            "interpolation": "nearest"
                        },
                        "name": "up_sampling2d_2",
                        "inbound_nodes": [
                            [
                                [
                                    "conv2d_13",
                                    0,
                                    0,
                                    {}
                                ]
                            ]
                        ]
                    },
                    {
                        "class_name": "Conv2D",
                        "config": {
                            "name": "conv2d_14",
                            "trainable": true,
                            "dtype": "float32",
                            "filters": 64,
                            "kernel_size": [
                                2,
                                2
                            ],
                            "strides": [
                                1,
                                1
                            ],
                            "padding": "same",
                            "data_format": "channels_last",
                            "dilation_rate": [
                                1,
                                1
                            ],
                            "groups": 1,
                            "activation": "relu",
                            "use_bias": true,
                            "kernel_initializer": {
                                "class_name": "GlorotUniform",
                                "config": {
                                    "seed": null
                                }
                            },
                            "bias_initializer": {
                                "class_name": "Zeros",
                                "config": {}
                            },
                            "kernel_regularizer": null,
                            "bias_regularizer": null,
                            "activity_regularizer": null,
                            "kernel_constraint": null,
                            "bias_constraint": null
                        },
                        "name": "conv2d_14",
                        "inbound_nodes": [
                            [
                                [
                                    "up_sampling2d_2",
                                    0,
                                    0,
                                    {}
                                ]
                            ]
                        ]
                    },
                    {
                        "class_name": "Concatenate",
                        "config": {
                            "name": "concatenate_2",
                            "trainable": true,
                            "dtype": "float32",
                            "axis": 3
                        },
                        "name": "concatenate_2",
                        "inbound_nodes": [
                            [
                                [
                                    "conv2d_1",
                                    0,
                                    0,
                                    {}
                                ],
                                [
                                    "conv2d_14",
                                    0,
                                    0,
                                    {}
                                ]
                            ]
                        ]
                    },
                    {
                        "class_name": "Conv2D",
                        "config": {
                            "name": "conv2d_15",
                            "trainable": true,
                            "dtype": "float32",
                            "filters": 64,
                            "kernel_size": [
                                3,
                                3
                            ],
                            "strides": [
                                1,
                                1
                            ],
                            "padding": "same",
                            "data_format": "channels_last",
                            "dilation_rate": [
                                1,
                                1
                            ],
                            "groups": 1,
                            "activation": "relu",
                            "use_bias": true,
                            "kernel_initializer": {
                                "class_name": "GlorotUniform",
                                "config": {
                                    "seed": null
                                }
                            },
                            "bias_initializer": {
                                "class_name": "Zeros",
                                "config": {}
                            },
                            "kernel_regularizer": null,
                            "bias_regularizer": null,
                            "activity_regularizer": null,
                            "kernel_constraint": null,
                            "bias_constraint": null
                        },
                        "name": "conv2d_15",
                        "inbound_nodes": [
                            [
                                [
                                    "concatenate_2",
                                    0,
                                    0,
                                    {}
                                ]
                            ]
                        ]
                    },
                    {
                        "class_name": "Conv2D",
                        "config": {
                            "name": "conv2d_16",
                            "trainable": true,
                            "dtype": "float32",
                            "filters": 64,
                            "kernel_size": [
                                3,
                                3
                            ],
                            "strides": [
                                1,
                                1
                            ],
                            "padding": "same",
                            "data_format": "channels_last",
                            "dilation_rate": [
                                1,
                                1
                            ],
                            "groups": 1,
                            "activation": "relu",
                            "use_bias": true,
                            "kernel_initializer": {
                                "class_name": "GlorotUniform",
                                "config": {
                                    "seed": null
                                }
                            },
                            "bias_initializer": {
                                "class_name": "Zeros",
                                "config": {}
                            },
                            "kernel_regularizer": null,
                            "bias_regularizer": null,
                            "activity_regularizer": null,
                            "kernel_constraint": null,
                            "bias_constraint": null
                        },
                        "name": "conv2d_16",
                        "inbound_nodes": [
                            [
                                [
                                    "conv2d_15",
                                    0,
                                    0,
                                    {}
                                ]
                            ]
                        ]
                    },
                    {
                        "class_name": "Conv2D",
                        "config": {
                            "name": "conv2d_17",
                            "trainable": true,
                            "dtype": "float32",
                            "filters": 1,
                            "kernel_size": [
                                1,
                                1
                            ],
                            "strides": [
                                1,
                                1
                            ],
                            "padding": "valid",
                            "data_format": "channels_last",
                            "dilation_rate": [
                                1,
                                1
                            ],
                            "groups": 1,
                            "activation": "sigmoid",
                            "use_bias": true,
                            "kernel_initializer": {
                                "class_name": "GlorotUniform",
                                "config": {
                                    "seed": null
                                }
                            },
                            "bias_initializer": {
                                "class_name": "Zeros",
                                "config": {}
                            },
                            "kernel_regularizer": null,
                            "bias_regularizer": null,
                            "activity_regularizer": null,
                            "kernel_constraint": null,
                            "bias_constraint": null
                        },
                        "name": "conv2d_17",
                        "inbound_nodes": [
                            [
                                [
                                    "conv2d_16",
                                    0,
                                    0,
                                    {}
                                ]
                            ]
                        ]
                    }
                ],
                "input_layers": [
                    [
                        "input_1",
                        0,
                        0
                    ]
                ],
                "output_layers": [
                    [
                        "conv2d_17",
                        0,
                        0
                    ]
                ]
            }
        },
        "training_config": {
            "loss": "binary_crossentropy",
            "metrics": [
                [
                    {
                        "class_name": "MeanMetricWrapper",
                        "config": {
                            "name": "accuracy",
                            "dtype": "float32",
                            "fn": "binary_accuracy"
                        }
                    },
                    {
                        "class_name": "MeanMetricWrapper",
                        "config": {
                            "name": "dice_score",
                            "dtype": "float32",
                            "fn": "dice_score"
                        }
                    }
                ]
            ],
            "weighted_metrics": null,
            "loss_weights": null,
            "optimizer_config": {
                "class_name": "Adam",
                "config": {
                    "name": "Adam",
                    "learning_rate": 0.0010000000474974513,
                    "decay": 0.0,
                    "beta_1": 0.8999999761581421,
                    "beta_2": 0.9990000128746033,
                    "epsilon": 1e-07,
                    "amsgrad": false
                }
            }
        }
    },
    "weightsManifest": [
        {
            "paths": [
                "group1-shard1of8.bin",
                "group1-shard2of8.bin",
                "group1-shard3of8.bin",
                "group1-shard4of8.bin",
                "group1-shard5of8.bin",
                "group1-shard6of8.bin",
                "group1-shard7of8.bin",
                "group1-shard8of8.bin"
            ],
            "weights": [
                {
                    "name": "conv2d/kernel",
                    "shape": [
                        3,
                        3,
                        3,
                        64
                    ],
                    "dtype": "float32"
                },
                {
                    "name": "conv2d/bias",
                    "shape": [
                        64
                    ],
                    "dtype": "float32"
                },
                {
                    "name": "conv2d_1/kernel",
                    "shape": [
                        3,
                        3,
                        64,
                        64
                    ],
                    "dtype": "float32"
                },
                {
                    "name": "conv2d_1/bias",
                    "shape": [
                        64
                    ],
                    "dtype": "float32"
                },
                {
                    "name": "conv2d_10/kernel",
                    "shape": [
                        3,
                        3,
                        256,
                        256
                    ],
                    "dtype": "float32"
                },
                {
                    "name": "conv2d_10/bias",
                    "shape": [
                        256
                    ],
                    "dtype": "float32"
                },
                {
                    "name": "conv2d_11/kernel",
                    "shape": [
                        2,
                        2,
                        256,
                        128
                    ],
                    "dtype": "float32"
                },
                {
                    "name": "conv2d_11/bias",
                    "shape": [
                        128
                    ],
                    "dtype": "float32"
                },
                {
                    "name": "conv2d_12/kernel",
                    "shape": [
                        3,
                        3,
                        256,
                        128
                    ],
                    "dtype": "float32"
                },
                {
                    "name": "conv2d_12/bias",
                    "shape": [
                        128
                    ],
                    "dtype": "float32"
                },
                {
                    "name": "conv2d_13/kernel",
                    "shape": [
                        3,
                        3,
                        128,
                        128
                    ],
                    "dtype": "float32"
                },
                {
                    "name": "conv2d_13/bias",
                    "shape": [
                        128
                    ],
                    "dtype": "float32"
                },
                {
                    "name": "conv2d_14/kernel",
                    "shape": [
                        2,
                        2,
                        128,
                        64
                    ],
                    "dtype": "float32"
                },
                {
                    "name": "conv2d_14/bias",
                    "shape": [
                        64
                    ],
                    "dtype": "float32"
                },
                {
                    "name": "conv2d_15/kernel",
                    "shape": [
                        3,
                        3,
                        128,
                        64
                    ],
                    "dtype": "float32"
                },
                {
                    "name": "conv2d_15/bias",
                    "shape": [
                        64
                    ],
                    "dtype": "float32"
                },
                {
                    "name": "conv2d_16/kernel",
                    "shape": [
                        3,
                        3,
                        64,
                        64
                    ],
                    "dtype": "float32"
                },
                {
                    "name": "conv2d_16/bias",
                    "shape": [
                        64
                    ],
                    "dtype": "float32"
                },
                {
                    "name": "conv2d_17/kernel",
                    "shape": [
                        1,
                        1,
                        64,
                        1
                    ],
                    "dtype": "float32"
                },
                {
                    "name": "conv2d_17/bias",
                    "shape": [
                        1
                    ],
                    "dtype": "float32"
                },
                {
                    "name": "conv2d_2/kernel",
                    "shape": [
                        3,
                        3,
                        64,
                        128
                    ],
                    "dtype": "float32"
                },
                {
                    "name": "conv2d_2/bias",
                    "shape": [
                        128
                    ],
                    "dtype": "float32"
                },
                {
                    "name": "conv2d_3/kernel",
                    "shape": [
                        3,
                        3,
                        128,
                        128
                    ],
                    "dtype": "float32"
                },
                {
                    "name": "conv2d_3/bias",
                    "shape": [
                        128
                    ],
                    "dtype": "float32"
                },
                {
                    "name": "conv2d_4/kernel",
                    "shape": [
                        3,
                        3,
                        128,
                        256
                    ],
                    "dtype": "float32"
                },
                {
                    "name": "conv2d_4/bias",
                    "shape": [
                        256
                    ],
                    "dtype": "float32"
                },
                {
                    "name": "conv2d_5/kernel",
                    "shape": [
                        3,
                        3,
                        256,
                        256
                    ],
                    "dtype": "float32"
                },
                {
                    "name": "conv2d_5/bias",
                    "shape": [
                        256
                    ],
                    "dtype": "float32"
                },
                {
                    "name": "conv2d_6/kernel",
                    "shape": [
                        3,
                        3,
                        256,
                        512
                    ],
                    "dtype": "float32"
                },
                {
                    "name": "conv2d_6/bias",
                    "shape": [
                        512
                    ],
                    "dtype": "float32"
                },
                {
                    "name": "conv2d_7/kernel",
                    "shape": [
                        3,
                        3,
                        512,
                        512
                    ],
                    "dtype": "float32"
                },
                {
                    "name": "conv2d_7/bias",
                    "shape": [
                        512
                    ],
                    "dtype": "float32"
                },
                {
                    "name": "conv2d_8/kernel",
                    "shape": [
                        2,
                        2,
                        512,
                        256
                    ],
                    "dtype": "float32"
                },
                {
                    "name": "conv2d_8/bias",
                    "shape": [
                        256
                    ],
                    "dtype": "float32"
                },
                {
                    "name": "conv2d_9/kernel",
                    "shape": [
                        3,
                        3,
                        512,
                        256
                    ],
                    "dtype": "float32"
                },
                {
                    "name": "conv2d_9/bias",
                    "shape": [
                        256
                    ],
                    "dtype": "float32"
                }
            ]
        }
    ]
}